{"format": "graph-model", "generatedBy": "1.14.0", "convertedBy": "TensorFlow.js Converter v3.19.0", "signature": {"inputs": {"inputs": {"name": "image_tensor:0", "dtype": "DT_UINT8", "tensorShape": {"dim": [{"size": "-1"}, {"size": "-1"}, {"size": "-1"}, {"size": "3"}]}}}, "outputs": {"raw_detection_boxes": {"name": "raw_detection_boxes:0", "dtype": "DT_FLOAT", "tensorShape": {"dim": [{"size": "-1"}, {"size": "-1"}, {"size": "4"}]}}, "detection_multiclass_scores": {"name": "detection_multiclass_scores:0", "dtype": "DT_FLOAT", "tensorShape": {"dim": [{"size": "-1"}, {"size": "100"}, {"size": "40"}]}}, "detection_scores:0": {"name": "detection_scores:0", "dtype": "DT_FLOAT", "tensorShape": {"dim": [{"size": "-1"}, {"size": "100"}]}}, "num_detections": {"name": "num_detections:0", "dtype": "DT_FLOAT", "tensorShape": {"dim": [{"size": "-1"}]}}, "detection_boxes": {"name": "detection_boxes:0", "dtype": "DT_FLOAT", "tensorShape": {"dim": [{"size": "-1"}, {"size": "100"}, {"size": "4"}]}}, "raw_detection_scores": {"name": "raw_detection_scores:0", "dtype": "DT_FLOAT", "tensorShape": {"dim": [{"size": "-1"}, {"size": "-1"}, {"size": "40"}]}}, "detection_classes:0": {"name": "detection_classes:0", "dtype": "DT_FLOAT", "tensorShape": {"dim": [{"size": "-1"}, {"size": "100"}]}}}}, "modelTopology": {"node": [{"name": "Postprocessor/BatchMultiClassNonMaxSuppression/map/TensorArrayStack/range/start", "op": "Const", "attr": {"value": {"tensor": {"dtype": "DT_INT32", "tensorShape": {}}}, "dtype": {"type": "DT_INT32"}}}, {"name": "Postprocessor/BatchMultiClassNonMaxSuppression/map/TensorArrayStack/range/delta", "op": "Const", "attr": {"dtype": {"type": "DT_INT32"}, "value": {"tensor": {"dtype": "DT_INT32", "tensorShape": {}}}}}, {"name": "Postprocessor/BatchMultiClassNonMaxSuppression/map/TensorArrayStack_2/range/start", "op": "Const", "attr": {"value": {"tensor": {"dtype": "DT_INT32", "tensorShape": {}}}, "dtype": {"type": "DT_INT32"}}}, {"name": "Postprocessor/BatchMultiClassNonMaxSuppression/map/TensorArrayStack_2/range/delta", "op": "Const", "attr": {"dtype": {"type": "DT_INT32"}, "value": {"tensor": {"dtype": "DT_INT32", "tensorShape": {}}}}}, {"name": "add/y", "op": "Const", "attr": {"value": {"tensor": {"dtype": "DT_FLOAT", "tensorShape": {}}}, "dtype": {"type": "DT_FLOAT"}}}, {"name": "Postprocessor/BatchMultiClassNonMaxSuppression/map/TensorArrayStack_5/range/start", "op": "Const", "attr": {"dtype": {"type": "DT_INT32"}, "value": {"tensor": {"dtype": "DT_INT32", "tensorShape": {}}}}}, {"name": "Postprocessor/BatchMultiClassNonMaxSuppression/map/TensorArrayStack_5/range/delta", "op": "Const", "attr": {"dtype": {"type": "DT_INT32"}, "value": {"tensor": {"dtype": "DT_INT32", "tensorShape": {}}}}}, {"name": "Postprocessor/BatchMultiClassNonMaxSuppression/map/TensorArrayUnstack_5/range/start", "op": "Const", "attr": {"value": {"tensor": {"dtype": "DT_INT32", "tensorShape": {}}}, "dtype": {"type": "DT_INT32"}}}, {"name": "Postprocessor/BatchMultiClassNonMaxSuppression/map/TensorArrayUnstack_5/strided_slice/stack", "op": "Const", "attr": {"value": {"tensor": {"dtype": "DT_INT32", "tensorShape": {"dim": [{"size": "1"}]}}}, "dtype": {"type": "DT_INT32"}}}, {"name": "Postprocessor/BatchMultiClassNonMaxSuppression/map/TensorArrayUnstack_5/strided_slice/stack_1", "op": "Const", "attr": {"dtype": {"type": "DT_INT32"}, "value": {"tensor": {"dtype": "DT_INT32", "tensorShape": {"dim": [{"size": "1"}]}}}}}, {"name": "Postprocessor/BatchMultiClassNonMaxSuppression/map/TensorArrayUnstack_5/strided_slice/stack_2", "op": "Const", "attr": {"dtype": {"type": "DT_INT32"}, "value": {"tensor": {"dtype": "DT_INT32", "tensorShape": {"dim": [{"size": "1"}]}}}}}, {"name": "Postprocessor/BatchMultiClassNonMaxSuppression/map/TensorArrayUnstack_5/range/delta", "op": "Const", "attr": {"value": {"tensor": {"dtype": "DT_INT32", "tensorShape": {}}}, "dtype": {"type": "DT_INT32"}}}, {"name": "Postprocessor/BatchMultiClassNonMaxSuppression/map/TensorArrayStack_1/range/start", "op": "Const", "attr": {"dtype": {"type": "DT_INT32"}, "value": {"tensor": {"dtype": "DT_INT32", "tensorShape": {}}}}}, {"name": "Postprocessor/BatchMultiClassNonMaxSuppression/map/TensorArrayStack_1/range/delta", "op": "Const", "attr": {"dtype": {"type": "DT_INT32"}, "value": {"tensor": {"dtype": "DT_INT32", "tensorShape": {}}}}}, {"name": "Postprocessor/BatchMultiClassNonMaxSuppression/map/TensorArrayStack_6/range/start", "op": "Const", "attr": {"value": {"tensor": {"dtype": "DT_INT32", "tensorShape": {}}}, "dtype": {"type": "DT_INT32"}}}, {"name": "Postprocessor/BatchMultiClassNonMaxSuppression/map/TensorArrayStack_6/range/delta", "op": "Const", "attr": {"dtype": {"type": "DT_INT32"}, "value": {"tensor": {"dtype": "DT_INT32", "tensorShape": {}}}}}, {"name": "Postprocessor/BatchMultiClassNonMaxSuppression/map/TensorArrayUnstack_3/range/start", "op": "Const", "attr": {"value": {"tensor": {"dtype": "DT_INT32", "tensorShape": {}}}, "dtype": {"type": "DT_INT32"}}}, {"name": "Postprocessor/BatchMultiClassNonMaxSuppression/map/TensorArrayUnstack_3/strided_slice/stack", "op": "Const", "attr": {"dtype": {"type": "DT_INT32"}, "value": {"tensor": {"dtype": "DT_INT32", "tensorShape": {"dim": [{"size": "1"}]}}}}}, {"name": "Postprocessor/BatchMultiClassNonMaxSuppression/map/TensorArrayUnstack_3/strided_slice/stack_1", "op": "Const", "attr": {"dtype": {"type": "DT_INT32"}, "value": {"tensor": {"dtype": "DT_INT32", "tensorShape": {"dim": [{"size": "1"}]}}}}}, {"name": "Postprocessor/BatchMultiClassNonMaxSuppression/map/TensorArrayUnstack_3/strided_slice/stack_2", "op": "Const", "attr": {"dtype": {"type": "DT_INT32"}, "value": {"tensor": {"dtype": "DT_INT32", "tensorShape": {"dim": [{"size": "1"}]}}}}}, {"name": "Postprocessor/BatchMultiClassNonMaxSuppression/map/TensorArrayUnstack_3/range/delta", "op": "Const", "attr": {"value": {"tensor": {"dtype": "DT_INT32", "tensorShape": {}}}, "dtype": {"type": "DT_INT32"}}}, {"name": "ConstantFolding/Postprocessor/truediv_recip", "op": "Const", "attr": {"value": {"tensor": {"dtype": "DT_FLOAT", "tensorShape": {}}}, "dtype": {"type": "DT_FLOAT"}}}, {"name": "Preprocessor/map/TensorArrayStack_1/range/start", "op": "Const", "attr": {"dtype": {"type": "DT_INT32"}, "value": {"tensor": {"dtype": "DT_INT32", "tensorShape": {}}}}}, {"name": "Preprocessor/map/TensorArrayStack_1/range/delta", "op": "Const", "attr": {"value": {"tensor": {"dtype": "DT_INT32", "tensorShape": {}}}, "dtype": {"type": "DT_INT32"}}}, {"name": "ConstantFolding/Postprocessor/truediv_1_recip", "op": "Const", "attr": {"value": {"tensor": {"dtype": "DT_FLOAT", "tensorShape": {}}}, "dtype": {"type": "DT_FLOAT"}}}, {"name": "Postprocessor/BatchMultiClassNonMaxSuppression/map/TensorArrayUnstack/range/start", "op": "Const", "attr": {"dtype": {"type": "DT_INT32"}, "value": {"tensor": {"dtype": "DT_INT32", "tensorShape": {}}}}}, {"name": "Postprocessor/BatchMultiClassNonMaxSuppression/map/TensorArrayUnstack/strided_slice/stack", "op": "Const", "attr": {"value": {"tensor": {"dtype": "DT_INT32", "tensorShape": {"dim": [{"size": "1"}]}}}, "dtype": {"type": "DT_INT32"}}}, {"name": "Postprocessor/BatchMultiClassNonMaxSuppression/map/TensorArrayUnstack/strided_slice/stack_1", "op": "Const", "attr": {"value": {"tensor": {"dtype": "DT_INT32", "tensorShape": {"dim": [{"size": "1"}]}}}, "dtype": {"type": "DT_INT32"}}}, {"name": "Postprocessor/BatchMultiClassNonMaxSuppression/map/TensorArrayUnstack/strided_slice/stack_2", "op": "Const", "attr": {"value": {"tensor": {"dtype": "DT_INT32", "tensorShape": {"dim": [{"size": "1"}]}}}, "dtype": {"type": "DT_INT32"}}}, {"name": "Postprocessor/BatchMultiClassNonMaxSuppression/map/TensorArrayUnstack/range/delta", "op": "Const", "attr": {"value": {"tensor": {"dtype": "DT_INT32", "tensorShape": {}}}, "dtype": {"type": "DT_INT32"}}}, {"name": "Postprocessor/BatchMultiClassNonMaxSuppression/map/TensorArrayUnstack_6/range/start", "op": "Const", "attr": {"dtype": {"type": "DT_INT32"}, "value": {"tensor": {"dtype": "DT_INT32", "tensorShape": {}}}}}, {"name": "Postprocessor/BatchMultiClassNonMaxSuppression/map/TensorArrayUnstack_6/strided_slice/stack", "op": "Const", "attr": {"value": {"tensor": {"dtype": "DT_INT32", "tensorShape": {"dim": [{"size": "1"}]}}}, "dtype": {"type": "DT_INT32"}}}, {"name": "Postprocessor/BatchMultiClassNonMaxSuppression/map/TensorArrayUnstack_6/strided_slice/stack_1", "op": "Const", "attr": {"value": {"tensor": {"dtype": "DT_INT32", "tensorShape": {"dim": [{"size": "1"}]}}}, "dtype": {"type": "DT_INT32"}}}, {"name": "Postprocessor/BatchMultiClassNonMaxSuppression/map/TensorArrayUnstack_6/strided_slice/stack_2", "op": "Const", "attr": {"dtype": {"type": "DT_INT32"}, "value": {"tensor": {"dtype": "DT_INT32", "tensorShape": {"dim": [{"size": "1"}]}}}}}, {"name": "Postprocessor/BatchMultiClassNonMaxSuppression/map/TensorArrayUnstack_6/range/delta", "op": "Const", "attr": {"value": {"tensor": {"dtype": "DT_INT32", "tensorShape": {}}}, "dtype": {"type": "DT_INT32"}}}, {"name": "Postprocessor/BatchMultiClassNonMaxSuppression/strided_slice/stack", "op": "Const", "attr": {"dtype": {"type": "DT_INT32"}, "value": {"tensor": {"dtype": "DT_INT32", "tensorShape": {"dim": [{"size": "1"}]}}}}}, {"name": "Postprocessor/BatchMultiClassNonMaxSuppression/strided_slice/stack_1", "op": "Const", "attr": {"dtype": {"type": "DT_INT32"}, "value": {"tensor": {"dtype": "DT_INT32", "tensorShape": {"dim": [{"size": "1"}]}}}}}, {"name": "Postprocessor/BatchMultiClassNonMaxSuppression/strided_slice/stack_2", "op": "Const", "attr": {"value": {"tensor": {"dtype": "DT_INT32", "tensorShape": {"dim": [{"size": "1"}]}}}, "dtype": {"type": "DT_INT32"}}}, {"name": "Postprocessor/BatchMultiClassNonMaxSuppression/ones/Const", "op": "Const", "attr": {"value": {"tensor": {"dtype": "DT_INT32", "tensorShape": {}}}, "dtype": {"type": "DT_INT32"}}}, {"name": "Postprocessor/BatchMultiClassNonMaxSuppression/strided_slice_1/stack", "op": "Const", "attr": {"dtype": {"type": "DT_INT32"}, "value": {"tensor": {"dtype": "DT_INT32", "tensorShape": {"dim": [{"size": "1"}]}}}}}, {"name": "Postprocessor/BatchMultiClassNonMaxSuppression/strided_slice_1/stack_1", "op": "Const", "attr": {"value": {"tensor": {"dtype": "DT_INT32", "tensorShape": {"dim": [{"size": "1"}]}}}, "dtype": {"type": "DT_INT32"}}}, {"name": "Postprocessor/BatchMultiClassNonMaxSuppression/strided_slice_1/stack_2", "op": "Const", "attr": {"dtype": {"type": "DT_INT32"}, "value": {"tensor": {"dtype": "DT_INT32", "tensorShape": {"dim": [{"size": "1"}]}}}}}, {"name": "Postprocessor/BatchMultiClassNonMaxSuppression/map/TensorArrayUnstack_1/range/start", "op": "Const", "attr": {"dtype": {"type": "DT_INT32"}, "value": {"tensor": {"dtype": "DT_INT32", "tensorShape": {}}}}}, {"name": "Postprocessor/BatchMultiClassNonMaxSuppression/map/TensorArrayUnstack_1/strided_slice/stack", "op": "Const", "attr": {"value": {"tensor": {"dtype": "DT_INT32", "tensorShape": {"dim": [{"size": "1"}]}}}, "dtype": {"type": "DT_INT32"}}}, {"name": "Postprocessor/BatchMultiClassNonMaxSuppression/map/TensorArrayUnstack_1/strided_slice/stack_1", "op": "Const", "attr": {"dtype": {"type": "DT_INT32"}, "value": {"tensor": {"dtype": "DT_INT32", "tensorShape": {"dim": [{"size": "1"}]}}}}}, {"name": "Postprocessor/BatchMultiClassNonMaxSuppression/map/TensorArrayUnstack_1/strided_slice/stack_2", "op": "Const", "attr": {"value": {"tensor": {"dtype": "DT_INT32", "tensorShape": {"dim": [{"size": "1"}]}}}, "dtype": {"type": "DT_INT32"}}}, {"name": "Postprocessor/BatchMultiClassNonMaxSuppression/map/TensorArrayUnstack_1/range/delta", "op": "Const", "attr": {"dtype": {"type": "DT_INT32"}, "value": {"tensor": {"dtype": "DT_INT32", "tensorShape": {}}}}}, {"name": "Postprocessor/Slice/begin", "op": "Const", "attr": {"dtype": {"type": "DT_INT32"}, "value": {"tensor": {"dtype": "DT_INT32", "tensorShape": {"dim": [{"size": "3"}]}}}}}, {"name": "Postprocessor/Slice/size", "op": "Const", "attr": {"value": {"tensor": {"dtype": "DT_INT32", "tensorShape": {"dim": [{"size": "3"}]}}}, "dtype": {"type": "DT_INT32"}}}, {"name": "Postprocessor/BatchMultiClassNonMaxSuppression/map/Const", "op": "Const", "attr": {"dtype": {"type": "DT_INT32"}, "value": {"tensor": {"dtype": "DT_INT32", "tensorShape": {}}}}}, {"name": "Postprocessor/BatchMultiClassNonMaxSuppression/map/while/iteration_counter", "op": "Const", "attr": {"dtype": {"type": "DT_INT32"}, "value": {"tensor": {"dtype": "DT_INT32", "tensorShape": {}}}}}, {"name": "Postprocessor/BatchMultiClassNonMaxSuppression/map/strided_slice/stack", "op": "Const", "attr": {"value": {"tensor": {"dtype": "DT_INT32", "tensorShape": {"dim": [{"size": "1"}]}}}, "dtype": {"type": "DT_INT32"}}}, {"name": "Postprocessor/BatchMultiClassNonMaxSuppression/map/strided_slice/stack_1", "op": "Const", "attr": {"dtype": {"type": "DT_INT32"}, "value": {"tensor": {"dtype": "DT_INT32", "tensorShape": {"dim": [{"size": "1"}]}}}}}, {"name": "Postprocessor/BatchMultiClassNonMaxSuppression/map/strided_slice/stack_2", "op": "Const", "attr": {"value": {"tensor": {"dtype": "DT_INT32", "tensorShape": {"dim": [{"size": "1"}]}}}, "dtype": {"type": "DT_INT32"}}}, {"name": "ConstantFolding/Postprocessor/Decode/truediv_4_recip", "op": "Const", "attr": {"value": {"tensor": {"dtype": "DT_FLOAT", "tensorShape": {}}}, "dtype": {"type": "DT_FLOAT"}}}, {"name": "ConstantFolding/Postprocessor/Decode/truediv_5_recip", "op": "Const", "attr": {"dtype": {"type": "DT_FLOAT"}, "value": {"tensor": {"dtype": "DT_FLOAT", "tensorShape": {}}}}}, {"name": "ConstantFolding/Postprocessor/Decode/truediv_recip", "op": "Const", "attr": {"dtype": {"type": "DT_FLOAT"}, "value": {"tensor": {"dtype": "DT_FLOAT", "tensorShape": {}}}}}, {"name": "ConstantFolding/Postprocessor/Decode/get_center_coordinates_and_sizes/truediv_recip", "op": "Const", "attr": {"dtype": {"type": "DT_FLOAT"}, "value": {"tensor": {"dtype": "DT_FLOAT", "tensorShape": {}}}}}, {"name": "ConstantFolding/Postprocessor/Decode/truediv_2_recip", "op": "Const", "attr": {"value": {"tensor": {"dtype": "DT_FLOAT", "tensorShape": {}}}, "dtype": {"type": "DT_FLOAT"}}}, {"name": "ConstantFolding/Postprocessor/Decode/truediv_6_recip", "op": "Const", "attr": {"dtype": {"type": "DT_FLOAT"}, "value": {"tensor": {"dtype": "DT_FLOAT", "tensorShape": {}}}}}, {"name": "ConstantFolding/Postprocessor/Decode/truediv_1_recip", "op": "Const", "attr": {"dtype": {"type": "DT_FLOAT"}, "value": {"tensor": {"dtype": "DT_FLOAT", "tensorShape": {}}}}}, {"name": "ConstantFolding/Postprocessor/Decode/get_center_coordinates_and_sizes/truediv_1_recip", "op": "Const", "attr": {"value": {"tensor": {"dtype": "DT_FLOAT", "tensorShape": {}}}, "dtype": {"type": "DT_FLOAT"}}}, {"name": "Postprocessor/Reshape_1/shape", "op": "Const", "attr": {"dtype": {"type": "DT_INT32"}, "value": {"tensor": {"dtype": "DT_INT32", "tensorShape": {"dim": [{"size": "2"}]}}}}}, {"name": "Postprocessor/Decode/transpose/perm", "op": "Const", "attr": {"value": {"tensor": {"dtype": "DT_INT32", "tensorShape": {"dim": [{"size": "2"}]}}}, "dtype": {"type": "DT_INT32"}}}, {"name": "ConstantFolding/Postprocessor/Decode/truediv_3_recip", "op": "Const", "attr": {"dtype": {"type": "DT_FLOAT"}, "value": {"tensor": {"dtype": "DT_FLOAT", "tensorShape": {}}}}}, {"name": "Postprocessor/ExpandDims", "op": "Const", "attr": {"dtype": {"type": "DT_FLOAT"}, "value": {"tensor": {"dtype": "DT_FLOAT", "tensorShape": {"dim": [{"size": "1"}, {"size": "285"}, {"size": "4"}]}}}}}, {"name": "Postprocessor/Tile/multiples/1", "op": "Const", "attr": {"value": {"tensor": {"dtype": "DT_INT32", "tensorShape": {}}}, "dtype": {"type": "DT_INT32"}}}, {"name": "Postprocessor/Tile/multiples/2", "op": "Const", "attr": {"value": {"tensor": {"dtype": "DT_INT32", "tensorShape": {}}}, "dtype": {"type": "DT_INT32"}}}, {"name": "Postprocessor/Reshape/shape", "op": "Const", "attr": {"value": {"tensor": {"dtype": "DT_INT32", "tensorShape": {"dim": [{"size": "2"}]}}}, "dtype": {"type": "DT_INT32"}}}, {"name": "Postprocessor/Decode/get_center_coordinates_and_sizes/transpose/perm", "op": "Const", "attr": {"dtype": {"type": "DT_INT32"}, "value": {"tensor": {"dtype": "DT_INT32", "tensorShape": {"dim": [{"size": "2"}]}}}}}, {"name": "ConstantFolding/Postprocessor/Decode/truediv_7_recip", "op": "Const", "attr": {"dtype": {"type": "DT_FLOAT"}, "value": {"tensor": {"dtype": "DT_FLOAT", "tensorShape": {}}}}}, {"name": "Postprocessor/Decode/transpose_1/perm", "op": "Const", "attr": {"dtype": {"type": "DT_INT32"}, "value": {"tensor": {"dtype": "DT_INT32", "tensorShape": {"dim": [{"size": "2"}]}}}}}, {"name": "Postprocessor/strided_slice/stack", "op": "Const", "attr": {"dtype": {"type": "DT_INT32"}, "value": {"tensor": {"dtype": "DT_INT32", "tensorShape": {"dim": [{"size": "1"}]}}}}}, {"name": "Postprocessor/strided_slice/stack_1", "op": "Const", "attr": {"value": {"tensor": {"dtype": "DT_INT32", "tensorShape": {"dim": [{"size": "1"}]}}}, "dtype": {"type": "DT_INT32"}}}, {"name": "Postprocessor/strided_slice/stack_2", "op": "Const", "attr": {"value": {"tensor": {"dtype": "DT_INT32", "tensorShape": {"dim": [{"size": "1"}]}}}, "dtype": {"type": "DT_INT32"}}}, {"name": "BoxPredictor_0/BoxEncodingPredictor/weights", "op": "Const", "attr": {"dtype": {"type": "DT_FLOAT"}, "value": {"tensor": {"dtype": "DT_FLOAT", "tensorShape": {"dim": [{"size": "1"}, {"size": "1"}, {"size": "672"}, {"size": "12"}]}}}}}, {"name": "BoxPredictor_0/BoxEncodingPredictor/biases", "op": "Const", "attr": {"dtype": {"type": "DT_FLOAT"}, "value": {"tensor": {"dtype": "DT_FLOAT", "tensorShape": {"dim": [{"size": "12"}]}}}}}, {"name": "BoxPredictor_0/strided_slice/stack", "op": "Const", "attr": {"value": {"tensor": {"dtype": "DT_INT32", "tensorShape": {"dim": [{"size": "1"}]}}}, "dtype": {"type": "DT_INT32"}}}, {"name": "BoxPredictor_0/strided_slice/stack_1", "op": "Const", "attr": {"value": {"tensor": {"dtype": "DT_INT32", "tensorShape": {"dim": [{"size": "1"}]}}}, "dtype": {"type": "DT_INT32"}}}, {"name": "BoxPredictor_0/strided_slice/stack_2", "op": "Const", "attr": {"dtype": {"type": "DT_INT32"}, "value": {"tensor": {"dtype": "DT_INT32", "tensorShape": {"dim": [{"size": "1"}]}}}}}, {"name": "BoxPredictor_0/Reshape/shape/1", "op": "Const", "attr": {"value": {"tensor": {"dtype": "DT_INT32", "tensorShape": {}}}, "dtype": {"type": "DT_INT32"}}}, {"name": "BoxPredictor_0/Reshape/shape/2", "op": "Const", "attr": {"dtype": {"type": "DT_INT32"}, "value": {"tensor": {"dtype": "DT_INT32", "tensorShape": {}}}}}, {"name": "BoxPredictor_0/Reshape/shape/3", "op": "Const", "attr": {"dtype": {"type": "DT_INT32"}, "value": {"tensor": {"dtype": "DT_INT32", "tensorShape": {}}}}}, {"name": "BoxPredictor_1/BoxEncodingPredictor/weights", "op": "Const", "attr": {"dtype": {"type": "DT_FLOAT"}, "value": {"tensor": {"dtype": "DT_FLOAT", "tensorShape": {"dim": [{"size": "1"}, {"size": "1"}, {"size": "480"}, {"size": "24"}]}}}}}, {"name": "BoxPredictor_1/BoxEncodingPredictor/biases", "op": "Const", "attr": {"dtype": {"type": "DT_FLOAT"}, "value": {"tensor": {"dtype": "DT_FLOAT", "tensorShape": {"dim": [{"size": "24"}]}}}}}, {"name": "BoxPredictor_1/strided_slice/stack", "op": "Const", "attr": {"value": {"tensor": {"dtype": "DT_INT32", "tensorShape": {"dim": [{"size": "1"}]}}}, "dtype": {"type": "DT_INT32"}}}, {"name": "BoxPredictor_1/strided_slice/stack_1", "op": "Const", "attr": {"value": {"tensor": {"dtype": "DT_INT32", "tensorShape": {"dim": [{"size": "1"}]}}}, "dtype": {"type": "DT_INT32"}}}, {"name": "BoxPredictor_1/strided_slice/stack_2", "op": "Const", "attr": {"dtype": {"type": "DT_INT32"}, "value": {"tensor": {"dtype": "DT_INT32", "tensorShape": {"dim": [{"size": "1"}]}}}}}, {"name": "BoxPredictor_1/Reshape/shape/1", "op": "Const", "attr": {"dtype": {"type": "DT_INT32"}, "value": {"tensor": {"dtype": "DT_INT32", "tensorShape": {}}}}}, {"name": "BoxPredictor_1/Reshape/shape/2", "op": "Const", "attr": {"dtype": {"type": "DT_INT32"}, "value": {"tensor": {"dtype": "DT_INT32", "tensorShape": {}}}}}, {"name": "BoxPredictor_1/Reshape/shape/3", "op": "Const", "attr": {"value": {"tensor": {"dtype": "DT_INT32", "tensorShape": {}}}, "dtype": {"type": "DT_INT32"}}}, {"name": "BoxPredictor_2/BoxEncodingPredictor/weights", "op": "Const", "attr": {"value": {"tensor": {"dtype": "DT_FLOAT", "tensorShape": {"dim": [{"size": "1"}, {"size": "1"}, {"size": "512"}, {"size": "24"}]}}}, "dtype": {"type": "DT_FLOAT"}}}, {"name": "BoxPredictor_2/BoxEncodingPredictor/biases", "op": "Const", "attr": {"dtype": {"type": "DT_FLOAT"}, "value": {"tensor": {"dtype": "DT_FLOAT", "tensorShape": {"dim": [{"size": "24"}]}}}}}, {"name": "BoxPredictor_2/strided_slice/stack", "op": "Const", "attr": {"value": {"tensor": {"dtype": "DT_INT32", "tensorShape": {"dim": [{"size": "1"}]}}}, "dtype": {"type": "DT_INT32"}}}, {"name": "BoxPredictor_2/strided_slice/stack_1", "op": "Const", "attr": {"dtype": {"type": "DT_INT32"}, "value": {"tensor": {"dtype": "DT_INT32", "tensorShape": {"dim": [{"size": "1"}]}}}}}, {"name": "BoxPredictor_2/strided_slice/stack_2", "op": "Const", "attr": {"value": {"tensor": {"dtype": "DT_INT32", "tensorShape": {"dim": [{"size": "1"}]}}}, "dtype": {"type": "DT_INT32"}}}, {"name": "BoxPredictor_2/Reshape/shape/1", "op": "Const", "attr": {"dtype": {"type": "DT_INT32"}, "value": {"tensor": {"dtype": "DT_INT32", "tensorShape": {}}}}}, {"name": "BoxPredictor_2/Reshape/shape/2", "op": "Const", "attr": {"value": {"tensor": {"dtype": "DT_INT32", "tensorShape": {}}}, "dtype": {"type": "DT_INT32"}}}, {"name": "BoxPredictor_2/Reshape/shape/3", "op": "Const", "attr": {"dtype": {"type": "DT_INT32"}, "value": {"tensor": {"dtype": "DT_INT32", "tensorShape": {}}}}}, {"name": "BoxPredictor_3/BoxEncodingPredictor/weights", "op": "Const", "attr": {"value": {"tensor": {"dtype": "DT_FLOAT", "tensorShape": {"dim": [{"size": "1"}, {"size": "1"}, {"size": "256"}, {"size": "24"}]}}}, "dtype": {"type": "DT_FLOAT"}}}, {"name": "BoxPredictor_3/BoxEncodingPredictor/biases", "op": "Const", "attr": {"dtype": {"type": "DT_FLOAT"}, "value": {"tensor": {"dtype": "DT_FLOAT", "tensorShape": {"dim": [{"size": "24"}]}}}}}, {"name": "BoxPredictor_3/strided_slice/stack", "op": "Const", "attr": {"dtype": {"type": "DT_INT32"}, "value": {"tensor": {"dtype": "DT_INT32", "tensorShape": {"dim": [{"size": "1"}]}}}}}, {"name": "BoxPredictor_3/strided_slice/stack_1", "op": "Const", "attr": {"dtype": {"type": "DT_INT32"}, "value": {"tensor": {"dtype": "DT_INT32", "tensorShape": {"dim": [{"size": "1"}]}}}}}, {"name": "BoxPredictor_3/strided_slice/stack_2", "op": "Const", "attr": {"dtype": {"type": "DT_INT32"}, "value": {"tensor": {"dtype": "DT_INT32", "tensorShape": {"dim": [{"size": "1"}]}}}}}, {"name": "BoxPredictor_3/Reshape/shape/1", "op": "Const", "attr": {"dtype": {"type": "DT_INT32"}, "value": {"tensor": {"dtype": "DT_INT32", "tensorShape": {}}}}}, {"name": "BoxPredictor_3/Reshape/shape/2", "op": "Const", "attr": {"value": {"tensor": {"dtype": "DT_INT32", "tensorShape": {}}}, "dtype": {"type": "DT_INT32"}}}, {"name": "BoxPredictor_3/Reshape/shape/3", "op": "Const", "attr": {"dtype": {"type": "DT_INT32"}, "value": {"tensor": {"dtype": "DT_INT32", "tensorShape": {}}}}}, {"name": "BoxPredictor_4/BoxEncodingPredictor/weights", "op": "Const", "attr": {"dtype": {"type": "DT_FLOAT"}, "value": {"tensor": {"dtype": "DT_FLOAT", "tensorShape": {"dim": [{"size": "1"}, {"size": "1"}, {"size": "256"}, {"size": "24"}]}}}}}, {"name": "BoxPredictor_4/BoxEncodingPredictor/biases", "op": "Const", "attr": {"value": {"tensor": {"dtype": "DT_FLOAT", "tensorShape": {"dim": [{"size": "24"}]}}}, "dtype": {"type": "DT_FLOAT"}}}, {"name": "BoxPredictor_4/strided_slice/stack", "op": "Const", "attr": {"dtype": {"type": "DT_INT32"}, "value": {"tensor": {"dtype": "DT_INT32", "tensorShape": {"dim": [{"size": "1"}]}}}}}, {"name": "BoxPredictor_4/strided_slice/stack_1", "op": "Const", "attr": {"dtype": {"type": "DT_INT32"}, "value": {"tensor": {"dtype": "DT_INT32", "tensorShape": {"dim": [{"size": "1"}]}}}}}, {"name": "BoxPredictor_4/strided_slice/stack_2", "op": "Const", "attr": {"dtype": {"type": "DT_INT32"}, "value": {"tensor": {"dtype": "DT_INT32", "tensorShape": {"dim": [{"size": "1"}]}}}}}, {"name": "BoxPredictor_4/Reshape/shape/1", "op": "Const", "attr": {"dtype": {"type": "DT_INT32"}, "value": {"tensor": {"dtype": "DT_INT32", "tensorShape": {}}}}}, {"name": "BoxPredictor_4/Reshape/shape/2", "op": "Const", "attr": {"value": {"tensor": {"dtype": "DT_INT32", "tensorShape": {}}}, "dtype": {"type": "DT_INT32"}}}, {"name": "BoxPredictor_4/Reshape/shape/3", "op": "Const", "attr": {"dtype": {"type": "DT_INT32"}, "value": {"tensor": {"dtype": "DT_INT32", "tensorShape": {}}}}}, {"name": "BoxPredictor_5/BoxEncodingPredictor/weights", "op": "Const", "attr": {"dtype": {"type": "DT_FLOAT"}, "value": {"tensor": {"dtype": "DT_FLOAT", "tensorShape": {"dim": [{"size": "1"}, {"size": "1"}, {"size": "128"}, {"size": "24"}]}}}}}, {"name": "BoxPredictor_5/BoxEncodingPredictor/biases", "op": "Const", "attr": {"value": {"tensor": {"dtype": "DT_FLOAT", "tensorShape": {"dim": [{"size": "24"}]}}}, "dtype": {"type": "DT_FLOAT"}}}, {"name": "BoxPredictor_5/strided_slice/stack", "op": "Const", "attr": {"dtype": {"type": "DT_INT32"}, "value": {"tensor": {"dtype": "DT_INT32", "tensorShape": {"dim": [{"size": "1"}]}}}}}, {"name": "BoxPredictor_5/strided_slice/stack_1", "op": "Const", "attr": {"value": {"tensor": {"dtype": "DT_INT32", "tensorShape": {"dim": [{"size": "1"}]}}}, "dtype": {"type": "DT_INT32"}}}, {"name": "BoxPredictor_5/strided_slice/stack_2", "op": "Const", "attr": {"dtype": {"type": "DT_INT32"}, "value": {"tensor": {"dtype": "DT_INT32", "tensorShape": {"dim": [{"size": "1"}]}}}}}, {"name": "BoxPredictor_5/Reshape/shape/1", "op": "Const", "attr": {"value": {"tensor": {"dtype": "DT_INT32", "tensorShape": {}}}, "dtype": {"type": "DT_INT32"}}}, {"name": "BoxPredictor_5/Reshape/shape/2", "op": "Const", "attr": {"value": {"tensor": {"dtype": "DT_INT32", "tensorShape": {}}}, "dtype": {"type": "DT_INT32"}}}, {"name": "BoxPredictor_5/Reshape/shape/3", "op": "Const", "attr": {"dtype": {"type": "DT_INT32"}, "value": {"tensor": {"dtype": "DT_INT32", "tensorShape": {}}}}}, {"name": "concat/axis", "op": "Const", "attr": {"dtype": {"type": "DT_INT32"}, "value": {"tensor": {"dtype": "DT_INT32", "tensorShape": {}}}}}, {"name": "Postprocessor/strided_slice_1/stack", "op": "Const", "attr": {"dtype": {"type": "DT_INT32"}, "value": {"tensor": {"dtype": "DT_INT32", "tensorShape": {"dim": [{"size": "1"}]}}}}}, {"name": "Postprocessor/strided_slice_1/stack_1", "op": "Const", "attr": {"dtype": {"type": "DT_INT32"}, "value": {"tensor": {"dtype": "DT_INT32", "tensorShape": {"dim": [{"size": "1"}]}}}}}, {"name": "Postprocessor/strided_slice_1/stack_2", "op": "Const", "attr": {"value": {"tensor": {"dtype": "DT_INT32", "tensorShape": {"dim": [{"size": "1"}]}}}, "dtype": {"type": "DT_INT32"}}}, {"name": "Postprocessor/stack/2", "op": "Const", "attr": {"dtype": {"type": "DT_INT32"}, "value": {"tensor": {"dtype": "DT_INT32", "tensorShape": {}}}}}, {"name": "Postprocessor/ExpandDims_1/dim", "op": "Const", "attr": {"dtype": {"type": "DT_INT32"}, "value": {"tensor": {"dtype": "DT_INT32", "tensorShape": {}}}}}, {"name": "BoxPredictor_0/ClassPredictor/weights", "op": "Const", "attr": {"dtype": {"type": "DT_FLOAT"}, "value": {"tensor": {"dtype": "DT_FLOAT", "tensorShape": {"dim": [{"size": "1"}, {"size": "1"}, {"size": "672"}, {"size": "120"}]}}}}}, {"name": "BoxPredictor_0/ClassPredictor/biases", "op": "Const", "attr": {"dtype": {"type": "DT_FLOAT"}, "value": {"tensor": {"dtype": "DT_FLOAT", "tensorShape": {"dim": [{"size": "120"}]}}}}}, {"name": "BoxPredictor_0/strided_slice_1/stack", "op": "Const", "attr": {"dtype": {"type": "DT_INT32"}, "value": {"tensor": {"dtype": "DT_INT32", "tensorShape": {"dim": [{"size": "1"}]}}}}}, {"name": "BoxPredictor_0/strided_slice_1/stack_1", "op": "Const", "attr": {"dtype": {"type": "DT_INT32"}, "value": {"tensor": {"dtype": "DT_INT32", "tensorShape": {"dim": [{"size": "1"}]}}}}}, {"name": "BoxPredictor_0/strided_slice_1/stack_2", "op": "Const", "attr": {"value": {"tensor": {"dtype": "DT_INT32", "tensorShape": {"dim": [{"size": "1"}]}}}, "dtype": {"type": "DT_INT32"}}}, {"name": "BoxPredictor_0/Reshape_1/shape/1", "op": "Const", "attr": {"dtype": {"type": "DT_INT32"}, "value": {"tensor": {"dtype": "DT_INT32", "tensorShape": {}}}}}, {"name": "BoxPredictor_0/Reshape_1/shape/2", "op": "Const", "attr": {"dtype": {"type": "DT_INT32"}, "value": {"tensor": {"dtype": "DT_INT32", "tensorShape": {}}}}}, {"name": "BoxPredictor_1/ClassPredictor/weights", "op": "Const", "attr": {"dtype": {"type": "DT_FLOAT"}, "value": {"tensor": {"dtype": "DT_FLOAT", "tensorShape": {"dim": [{"size": "1"}, {"size": "1"}, {"size": "480"}, {"size": "240"}]}}}}}, {"name": "BoxPredictor_1/ClassPredictor/biases", "op": "Const", "attr": {"dtype": {"type": "DT_FLOAT"}, "value": {"tensor": {"dtype": "DT_FLOAT", "tensorShape": {"dim": [{"size": "240"}]}}}}}, {"name": "BoxPredictor_1/strided_slice_1/stack", "op": "Const", "attr": {"dtype": {"type": "DT_INT32"}, "value": {"tensor": {"dtype": "DT_INT32", "tensorShape": {"dim": [{"size": "1"}]}}}}}, {"name": "BoxPredictor_1/strided_slice_1/stack_1", "op": "Const", "attr": {"dtype": {"type": "DT_INT32"}, "value": {"tensor": {"dtype": "DT_INT32", "tensorShape": {"dim": [{"size": "1"}]}}}}}, {"name": "BoxPredictor_1/strided_slice_1/stack_2", "op": "Const", "attr": {"dtype": {"type": "DT_INT32"}, "value": {"tensor": {"dtype": "DT_INT32", "tensorShape": {"dim": [{"size": "1"}]}}}}}, {"name": "BoxPredictor_1/Reshape_1/shape/1", "op": "Const", "attr": {"dtype": {"type": "DT_INT32"}, "value": {"tensor": {"dtype": "DT_INT32", "tensorShape": {}}}}}, {"name": "BoxPredictor_1/Reshape_1/shape/2", "op": "Const", "attr": {"value": {"tensor": {"dtype": "DT_INT32", "tensorShape": {}}}, "dtype": {"type": "DT_INT32"}}}, {"name": "BoxPredictor_2/ClassPredictor/weights", "op": "Const", "attr": {"dtype": {"type": "DT_FLOAT"}, "value": {"tensor": {"dtype": "DT_FLOAT", "tensorShape": {"dim": [{"size": "1"}, {"size": "1"}, {"size": "512"}, {"size": "240"}]}}}}}, {"name": "BoxPredictor_2/ClassPredictor/biases", "op": "Const", "attr": {"dtype": {"type": "DT_FLOAT"}, "value": {"tensor": {"dtype": "DT_FLOAT", "tensorShape": {"dim": [{"size": "240"}]}}}}}, {"name": "BoxPredictor_2/strided_slice_1/stack", "op": "Const", "attr": {"dtype": {"type": "DT_INT32"}, "value": {"tensor": {"dtype": "DT_INT32", "tensorShape": {"dim": [{"size": "1"}]}}}}}, {"name": "BoxPredictor_2/strided_slice_1/stack_1", "op": "Const", "attr": {"value": {"tensor": {"dtype": "DT_INT32", "tensorShape": {"dim": [{"size": "1"}]}}}, "dtype": {"type": "DT_INT32"}}}, {"name": "BoxPredictor_2/strided_slice_1/stack_2", "op": "Const", "attr": {"dtype": {"type": "DT_INT32"}, "value": {"tensor": {"dtype": "DT_INT32", "tensorShape": {"dim": [{"size": "1"}]}}}}}, {"name": "BoxPredictor_2/Reshape_1/shape/1", "op": "Const", "attr": {"dtype": {"type": "DT_INT32"}, "value": {"tensor": {"dtype": "DT_INT32", "tensorShape": {}}}}}, {"name": "BoxPredictor_2/Reshape_1/shape/2", "op": "Const", "attr": {"value": {"tensor": {"dtype": "DT_INT32", "tensorShape": {}}}, "dtype": {"type": "DT_INT32"}}}, {"name": "BoxPredictor_3/ClassPredictor/weights", "op": "Const", "attr": {"dtype": {"type": "DT_FLOAT"}, "value": {"tensor": {"dtype": "DT_FLOAT", "tensorShape": {"dim": [{"size": "1"}, {"size": "1"}, {"size": "256"}, {"size": "240"}]}}}}}, {"name": "BoxPredictor_3/ClassPredictor/biases", "op": "Const", "attr": {"dtype": {"type": "DT_FLOAT"}, "value": {"tensor": {"dtype": "DT_FLOAT", "tensorShape": {"dim": [{"size": "240"}]}}}}}, {"name": "BoxPredictor_3/strided_slice_1/stack", "op": "Const", "attr": {"dtype": {"type": "DT_INT32"}, "value": {"tensor": {"dtype": "DT_INT32", "tensorShape": {"dim": [{"size": "1"}]}}}}}, {"name": "BoxPredictor_3/strided_slice_1/stack_1", "op": "Const", "attr": {"dtype": {"type": "DT_INT32"}, "value": {"tensor": {"dtype": "DT_INT32", "tensorShape": {"dim": [{"size": "1"}]}}}}}, {"name": "BoxPredictor_3/strided_slice_1/stack_2", "op": "Const", "attr": {"dtype": {"type": "DT_INT32"}, "value": {"tensor": {"dtype": "DT_INT32", "tensorShape": {"dim": [{"size": "1"}]}}}}}, {"name": "BoxPredictor_3/Reshape_1/shape/1", "op": "Const", "attr": {"dtype": {"type": "DT_INT32"}, "value": {"tensor": {"dtype": "DT_INT32", "tensorShape": {}}}}}, {"name": "BoxPredictor_3/Reshape_1/shape/2", "op": "Const", "attr": {"dtype": {"type": "DT_INT32"}, "value": {"tensor": {"dtype": "DT_INT32", "tensorShape": {}}}}}, {"name": "BoxPredictor_4/ClassPredictor/weights", "op": "Const", "attr": {"value": {"tensor": {"dtype": "DT_FLOAT", "tensorShape": {"dim": [{"size": "1"}, {"size": "1"}, {"size": "256"}, {"size": "240"}]}}}, "dtype": {"type": "DT_FLOAT"}}}, {"name": "BoxPredictor_4/ClassPredictor/biases", "op": "Const", "attr": {"value": {"tensor": {"dtype": "DT_FLOAT", "tensorShape": {"dim": [{"size": "240"}]}}}, "dtype": {"type": "DT_FLOAT"}}}, {"name": "BoxPredictor_4/strided_slice_1/stack", "op": "Const", "attr": {"dtype": {"type": "DT_INT32"}, "value": {"tensor": {"dtype": "DT_INT32", "tensorShape": {"dim": [{"size": "1"}]}}}}}, {"name": "BoxPredictor_4/strided_slice_1/stack_1", "op": "Const", "attr": {"dtype": {"type": "DT_INT32"}, "value": {"tensor": {"dtype": "DT_INT32", "tensorShape": {"dim": [{"size": "1"}]}}}}}, {"name": "BoxPredictor_4/strided_slice_1/stack_2", "op": "Const", "attr": {"value": {"tensor": {"dtype": "DT_INT32", "tensorShape": {"dim": [{"size": "1"}]}}}, "dtype": {"type": "DT_INT32"}}}, {"name": "BoxPredictor_4/Reshape_1/shape/1", "op": "Const", "attr": {"dtype": {"type": "DT_INT32"}, "value": {"tensor": {"dtype": "DT_INT32", "tensorShape": {}}}}}, {"name": "BoxPredictor_4/Reshape_1/shape/2", "op": "Const", "attr": {"value": {"tensor": {"dtype": "DT_INT32", "tensorShape": {}}}, "dtype": {"type": "DT_INT32"}}}, {"name": "BoxPredictor_5/ClassPredictor/weights", "op": "Const", "attr": {"dtype": {"type": "DT_FLOAT"}, "value": {"tensor": {"dtype": "DT_FLOAT", "tensorShape": {"dim": [{"size": "1"}, {"size": "1"}, {"size": "128"}, {"size": "240"}]}}}}}, {"name": "BoxPredictor_5/ClassPredictor/biases", "op": "Const", "attr": {"dtype": {"type": "DT_FLOAT"}, "value": {"tensor": {"dtype": "DT_FLOAT", "tensorShape": {"dim": [{"size": "240"}]}}}}}, {"name": "FeatureExtractor/MobilenetV3/Conv_1/hard_swish/mul_1/y", "op": "Const", "attr": {"value": {"tensor": {"dtype": "DT_FLOAT", "tensorShape": {}}}, "dtype": {"type": "DT_FLOAT"}}}, {"name": "FeatureExtractor/MobilenetV3/expanded_conv_14/squeeze_excite/Conv_1/mul/y", "op": "Const", "attr": {"dtype": {"type": "DT_FLOAT"}, "value": {"tensor": {"dtype": "DT_FLOAT", "tensorShape": {}}}}}, {"name": "FeatureExtractor/MobilenetV3/expanded_conv_14/squeeze_excite/Mean/reduction_indices", "op": "Const", "attr": {"value": {"tensor": {"dtype": "DT_INT32", "tensorShape": {"dim": [{"size": "2"}]}}}, "dtype": {"type": "DT_INT32"}}}, {"name": "FeatureExtractor/MobilenetV3/expanded_conv_14/squeeze_excite/Conv/weights", "op": "Const", "attr": {"value": {"tensor": {"dtype": "DT_FLOAT", "tensorShape": {"dim": [{"size": "1"}, {"size": "1"}, {"size": "480"}, {"size": "120"}]}}}, "dtype": {"type": "DT_FLOAT"}}}, {"name": "FeatureExtractor/MobilenetV3/expanded_conv_14/squeeze_excite/Conv/biases", "op": "Const", "attr": {"dtype": {"type": "DT_FLOAT"}, "value": {"tensor": {"dtype": "DT_FLOAT", "tensorShape": {"dim": [{"size": "120"}]}}}}}, {"name": "FeatureExtractor/MobilenetV3/expanded_conv_14/squeeze_excite/Conv_1/weights", "op": "Const", "attr": {"value": {"tensor": {"dtype": "DT_FLOAT", "tensorShape": {"dim": [{"size": "1"}, {"size": "1"}, {"size": "120"}, {"size": "480"}]}}}, "dtype": {"type": "DT_FLOAT"}}}, {"name": "FeatureExtractor/MobilenetV3/expanded_conv_14/squeeze_excite/Conv_1/biases", "op": "Const", "attr": {"dtype": {"type": "DT_FLOAT"}, "value": {"tensor": {"dtype": "DT_FLOAT", "tensorShape": {"dim": [{"size": "480"}]}}}}}, {"name": "FeatureExtractor/MobilenetV3/expanded_conv_14/squeeze_excite/Conv_1/add/y", "op": "Const", "attr": {"value": {"tensor": {"dtype": "DT_FLOAT", "tensorShape": {}}}, "dtype": {"type": "DT_FLOAT"}}}, {"name": "FeatureExtractor/MobilenetV3/expanded_conv_14/depthwise/hard_swish/mul_1/y", "op": "Const", "attr": {"dtype": {"type": "DT_FLOAT"}, "value": {"tensor": {"dtype": "DT_FLOAT", "tensorShape": {}}}}}, {"name": "FeatureExtractor/MobilenetV3/expanded_conv_14/expand/hard_swish/mul_1/y", "op": "Const", "attr": {"dtype": {"type": "DT_FLOAT"}, "value": {"tensor": {"dtype": "DT_FLOAT", "tensorShape": {}}}}}, {"name": "FeatureExtractor/MobilenetV3/expanded_conv_14/expand/hard_swish/add/y", "op": "Const", "attr": {"dtype": {"type": "DT_FLOAT"}, "value": {"tensor": {"dtype": "DT_FLOAT", "tensorShape": {}}}}}, {"name": "FeatureExtractor/MobilenetV3/expanded_conv_14/depthwise/hard_swish/add/y", "op": "Const", "attr": {"dtype": {"type": "DT_FLOAT"}, "value": {"tensor": {"dtype": "DT_FLOAT", "tensorShape": {}}}}}, {"name": "FeatureExtractor/MobilenetV3/expanded_conv_13/squeeze_excite/Conv_1/mul/y", "op": "Const", "attr": {"value": {"tensor": {"dtype": "DT_FLOAT", "tensorShape": {}}}, "dtype": {"type": "DT_FLOAT"}}}, {"name": "FeatureExtractor/MobilenetV3/expanded_conv_13/squeeze_excite/Mean/reduction_indices", "op": "Const", "attr": {"dtype": {"type": "DT_INT32"}, "value": {"tensor": {"dtype": "DT_INT32", "tensorShape": {"dim": [{"size": "2"}]}}}}}, {"name": "FeatureExtractor/MobilenetV3/expanded_conv_13/squeeze_excite/Conv/weights", "op": "Const", "attr": {"dtype": {"type": "DT_FLOAT"}, "value": {"tensor": {"dtype": "DT_FLOAT", "tensorShape": {"dim": [{"size": "1"}, {"size": "1"}, {"size": "480"}, {"size": "120"}]}}}}}, {"name": "FeatureExtractor/MobilenetV3/expanded_conv_13/squeeze_excite/Conv/biases", "op": "Const", "attr": {"dtype": {"type": "DT_FLOAT"}, "value": {"tensor": {"dtype": "DT_FLOAT", "tensorShape": {"dim": [{"size": "120"}]}}}}}, {"name": "FeatureExtractor/MobilenetV3/expanded_conv_13/squeeze_excite/Conv_1/weights", "op": "Const", "attr": {"dtype": {"type": "DT_FLOAT"}, "value": {"tensor": {"dtype": "DT_FLOAT", "tensorShape": {"dim": [{"size": "1"}, {"size": "1"}, {"size": "120"}, {"size": "480"}]}}}}}, {"name": "FeatureExtractor/MobilenetV3/expanded_conv_13/squeeze_excite/Conv_1/biases", "op": "Const", "attr": {"value": {"tensor": {"dtype": "DT_FLOAT", "tensorShape": {"dim": [{"size": "480"}]}}}, "dtype": {"type": "DT_FLOAT"}}}, {"name": "FeatureExtractor/MobilenetV3/expanded_conv_13/squeeze_excite/Conv_1/add/y", "op": "Const", "attr": {"dtype": {"type": "DT_FLOAT"}, "value": {"tensor": {"dtype": "DT_FLOAT", "tensorShape": {}}}}}, {"name": "FeatureExtractor/MobilenetV3/expanded_conv_13/depthwise/hard_swish/mul_1/y", "op": "Const", "attr": {"dtype": {"type": "DT_FLOAT"}, "value": {"tensor": {"dtype": "DT_FLOAT", "tensorShape": {}}}}}, {"name": "FeatureExtractor/MobilenetV3/expanded_conv_13/expand/hard_swish/mul_1/y", "op": "Const", "attr": {"value": {"tensor": {"dtype": "DT_FLOAT", "tensorShape": {}}}, "dtype": {"type": "DT_FLOAT"}}}, {"name": "FeatureExtractor/MobilenetV3/expanded_conv_13/expand/hard_swish/add/y", "op": "Const", "attr": {"dtype": {"type": "DT_FLOAT"}, "value": {"tensor": {"dtype": "DT_FLOAT", "tensorShape": {}}}}}, {"name": "FeatureExtractor/MobilenetV3/expanded_conv_13/depthwise/hard_swish/add/y", "op": "Const", "attr": {"value": {"tensor": {"dtype": "DT_FLOAT", "tensorShape": {}}}, "dtype": {"type": "DT_FLOAT"}}}, {"name": "FeatureExtractor/MobilenetV3/expanded_conv_12/squeeze_excite/Conv_1/mul/y", "op": "Const", "attr": {"dtype": {"type": "DT_FLOAT"}, "value": {"tensor": {"dtype": "DT_FLOAT", "tensorShape": {}}}}}, {"name": "FeatureExtractor/MobilenetV3/expanded_conv_12/squeeze_excite/Mean/reduction_indices", "op": "Const", "attr": {"dtype": {"type": "DT_INT32"}, "value": {"tensor": {"dtype": "DT_INT32", "tensorShape": {"dim": [{"size": "2"}]}}}}}, {"name": "FeatureExtractor/MobilenetV3/expanded_conv_12/squeeze_excite/Conv/weights", "op": "Const", "attr": {"value": {"tensor": {"dtype": "DT_FLOAT", "tensorShape": {"dim": [{"size": "1"}, {"size": "1"}, {"size": "672"}, {"size": "168"}]}}}, "dtype": {"type": "DT_FLOAT"}}}, {"name": "FeatureExtractor/MobilenetV3/expanded_conv_12/squeeze_excite/Conv/biases", "op": "Const", "attr": {"dtype": {"type": "DT_FLOAT"}, "value": {"tensor": {"dtype": "DT_FLOAT", "tensorShape": {"dim": [{"size": "168"}]}}}}}, {"name": "FeatureExtractor/MobilenetV3/expanded_conv_12/squeeze_excite/Conv_1/weights", "op": "Const", "attr": {"dtype": {"type": "DT_FLOAT"}, "value": {"tensor": {"dtype": "DT_FLOAT", "tensorShape": {"dim": [{"size": "1"}, {"size": "1"}, {"size": "168"}, {"size": "672"}]}}}}}, {"name": "FeatureExtractor/MobilenetV3/expanded_conv_12/squeeze_excite/Conv_1/biases", "op": "Const", "attr": {"dtype": {"type": "DT_FLOAT"}, "value": {"tensor": {"dtype": "DT_FLOAT", "tensorShape": {"dim": [{"size": "672"}]}}}}}, {"name": "FeatureExtractor/MobilenetV3/expanded_conv_12/squeeze_excite/Conv_1/add/y", "op": "Const", "attr": {"value": {"tensor": {"dtype": "DT_FLOAT", "tensorShape": {}}}, "dtype": {"type": "DT_FLOAT"}}}, {"name": "FeatureExtractor/MobilenetV3/expanded_conv_12/depthwise/hard_swish/mul_1/y", "op": "Const", "attr": {"value": {"tensor": {"dtype": "DT_FLOAT", "tensorShape": {}}}, "dtype": {"type": "DT_FLOAT"}}}, {"name": "FeatureExtractor/MobilenetV3/expanded_conv_12/expand/hard_swish/mul_1/y", "op": "Const", "attr": {"dtype": {"type": "DT_FLOAT"}, "value": {"tensor": {"dtype": "DT_FLOAT", "tensorShape": {}}}}}, {"name": "FeatureExtractor/MobilenetV3/expanded_conv_11/squeeze_excite/Conv_1/mul/y", "op": "Const", "attr": {"dtype": {"type": "DT_FLOAT"}, "value": {"tensor": {"dtype": "DT_FLOAT", "tensorShape": {}}}}}, {"name": "FeatureExtractor/MobilenetV3/expanded_conv_11/squeeze_excite/Mean/reduction_indices", "op": "Const", "attr": {"value": {"tensor": {"dtype": "DT_INT32", "tensorShape": {"dim": [{"size": "2"}]}}}, "dtype": {"type": "DT_INT32"}}}, {"name": "FeatureExtractor/MobilenetV3/expanded_conv_11/squeeze_excite/Conv/weights", "op": "Const", "attr": {"dtype": {"type": "DT_FLOAT"}, "value": {"tensor": {"dtype": "DT_FLOAT", "tensorShape": {"dim": [{"size": "1"}, {"size": "1"}, {"size": "672"}, {"size": "168"}]}}}}}, {"name": "FeatureExtractor/MobilenetV3/expanded_conv_11/squeeze_excite/Conv/biases", "op": "Const", "attr": {"dtype": {"type": "DT_FLOAT"}, "value": {"tensor": {"dtype": "DT_FLOAT", "tensorShape": {"dim": [{"size": "168"}]}}}}}, {"name": "FeatureExtractor/MobilenetV3/expanded_conv_11/squeeze_excite/Conv_1/weights", "op": "Const", "attr": {"dtype": {"type": "DT_FLOAT"}, "value": {"tensor": {"dtype": "DT_FLOAT", "tensorShape": {"dim": [{"size": "1"}, {"size": "1"}, {"size": "168"}, {"size": "672"}]}}}}}, {"name": "FeatureExtractor/MobilenetV3/expanded_conv_11/squeeze_excite/Conv_1/biases", "op": "Const", "attr": {"value": {"tensor": {"dtype": "DT_FLOAT", "tensorShape": {"dim": [{"size": "672"}]}}}, "dtype": {"type": "DT_FLOAT"}}}, {"name": "FeatureExtractor/MobilenetV3/expanded_conv_11/squeeze_excite/Conv_1/add/y", "op": "Const", "attr": {"dtype": {"type": "DT_FLOAT"}, "value": {"tensor": {"dtype": "DT_FLOAT", "tensorShape": {}}}}}, {"name": "FeatureExtractor/MobilenetV3/expanded_conv_11/depthwise/hard_swish/mul_1/y", "op": "Const", "attr": {"dtype": {"type": "DT_FLOAT"}, "value": {"tensor": {"dtype": "DT_FLOAT", "tensorShape": {}}}}}, {"name": "FeatureExtractor/MobilenetV3/expanded_conv_11/expand/hard_swish/mul_1/y", "op": "Const", "attr": {"dtype": {"type": "DT_FLOAT"}, "value": {"tensor": {"dtype": "DT_FLOAT", "tensorShape": {}}}}}, {"name": "FeatureExtractor/MobilenetV3/expanded_conv_11/expand/hard_swish/add/y", "op": "Const", "attr": {"value": {"tensor": {"dtype": "DT_FLOAT", "tensorShape": {}}}, "dtype": {"type": "DT_FLOAT"}}}, {"name": "FeatureExtractor/MobilenetV3/expanded_conv_11/depthwise/hard_swish/add/y", "op": "Const", "attr": {"dtype": {"type": "DT_FLOAT"}, "value": {"tensor": {"dtype": "DT_FLOAT", "tensorShape": {}}}}}, {"name": "FeatureExtractor/MobilenetV3/expanded_conv_10/squeeze_excite/Conv_1/mul/y", "op": "Const", "attr": {"value": {"tensor": {"dtype": "DT_FLOAT", "tensorShape": {}}}, "dtype": {"type": "DT_FLOAT"}}}, {"name": "FeatureExtractor/MobilenetV3/expanded_conv_10/squeeze_excite/Mean/reduction_indices", "op": "Const", "attr": {"value": {"tensor": {"dtype": "DT_INT32", "tensorShape": {"dim": [{"size": "2"}]}}}, "dtype": {"type": "DT_INT32"}}}, {"name": "FeatureExtractor/MobilenetV3/expanded_conv_10/squeeze_excite/Conv/weights", "op": "Const", "attr": {"value": {"tensor": {"dtype": "DT_FLOAT", "tensorShape": {"dim": [{"size": "1"}, {"size": "1"}, {"size": "480"}, {"size": "120"}]}}}, "dtype": {"type": "DT_FLOAT"}}}, {"name": "FeatureExtractor/MobilenetV3/expanded_conv_10/squeeze_excite/Conv/biases", "op": "Const", "attr": {"dtype": {"type": "DT_FLOAT"}, "value": {"tensor": {"dtype": "DT_FLOAT", "tensorShape": {"dim": [{"size": "120"}]}}}}}, {"name": "FeatureExtractor/MobilenetV3/expanded_conv_10/squeeze_excite/Conv_1/weights", "op": "Const", "attr": {"value": {"tensor": {"dtype": "DT_FLOAT", "tensorShape": {"dim": [{"size": "1"}, {"size": "1"}, {"size": "120"}, {"size": "480"}]}}}, "dtype": {"type": "DT_FLOAT"}}}, {"name": "FeatureExtractor/MobilenetV3/expanded_conv_10/squeeze_excite/Conv_1/biases", "op": "Const", "attr": {"dtype": {"type": "DT_FLOAT"}, "value": {"tensor": {"dtype": "DT_FLOAT", "tensorShape": {"dim": [{"size": "480"}]}}}}}, {"name": "FeatureExtractor/MobilenetV3/expanded_conv_10/squeeze_excite/Conv_1/add/y", "op": "Const", "attr": {"dtype": {"type": "DT_FLOAT"}, "value": {"tensor": {"dtype": "DT_FLOAT", "tensorShape": {}}}}}, {"name": "FeatureExtractor/MobilenetV3/expanded_conv_10/depthwise/hard_swish/mul_1/y", "op": "Const", "attr": {"dtype": {"type": "DT_FLOAT"}, "value": {"tensor": {"dtype": "DT_FLOAT", "tensorShape": {}}}}}, {"name": "FeatureExtractor/MobilenetV3/expanded_conv_10/expand/hard_swish/mul_1/y", "op": "Const", "attr": {"dtype": {"type": "DT_FLOAT"}, "value": {"tensor": {"dtype": "DT_FLOAT", "tensorShape": {}}}}}, {"name": "FeatureExtractor/MobilenetV3/expanded_conv_9/depthwise/hard_swish/mul_1/y", "op": "Const", "attr": {"dtype": {"type": "DT_FLOAT"}, "value": {"tensor": {"dtype": "DT_FLOAT", "tensorShape": {}}}}}, {"name": "FeatureExtractor/MobilenetV3/expanded_conv_9/expand/hard_swish/mul_1/y", "op": "Const", "attr": {"value": {"tensor": {"dtype": "DT_FLOAT", "tensorShape": {}}}, "dtype": {"type": "DT_FLOAT"}}}, {"name": "FeatureExtractor/MobilenetV3/expanded_conv_9/expand/hard_swish/add/y", "op": "Const", "attr": {"value": {"tensor": {"dtype": "DT_FLOAT", "tensorShape": {}}}, "dtype": {"type": "DT_FLOAT"}}}, {"name": "FeatureExtractor/MobilenetV3/expanded_conv_9/depthwise/hard_swish/add/y", "op": "Const", "attr": {"dtype": {"type": "DT_FLOAT"}, "value": {"tensor": {"dtype": "DT_FLOAT", "tensorShape": {}}}}}, {"name": "FeatureExtractor/MobilenetV3/expanded_conv_8/depthwise/hard_swish/mul_1/y", "op": "Const", "attr": {"value": {"tensor": {"dtype": "DT_FLOAT", "tensorShape": {}}}, "dtype": {"type": "DT_FLOAT"}}}, {"name": "FeatureExtractor/MobilenetV3/expanded_conv_8/expand/hard_swish/mul_1/y", "op": "Const", "attr": {"dtype": {"type": "DT_FLOAT"}, "value": {"tensor": {"dtype": "DT_FLOAT", "tensorShape": {}}}}}, {"name": "FeatureExtractor/MobilenetV3/expanded_conv_8/expand/hard_swish/add/y", "op": "Const", "attr": {"dtype": {"type": "DT_FLOAT"}, "value": {"tensor": {"dtype": "DT_FLOAT", "tensorShape": {}}}}}, {"name": "FeatureExtractor/MobilenetV3/expanded_conv_8/depthwise/hard_swish/add/y", "op": "Const", "attr": {"dtype": {"type": "DT_FLOAT"}, "value": {"tensor": {"dtype": "DT_FLOAT", "tensorShape": {}}}}}, {"name": "FeatureExtractor/MobilenetV3/expanded_conv_7/depthwise/hard_swish/mul_1/y", "op": "Const", "attr": {"value": {"tensor": {"dtype": "DT_FLOAT", "tensorShape": {}}}, "dtype": {"type": "DT_FLOAT"}}}, {"name": "FeatureExtractor/MobilenetV3/expanded_conv_7/expand/hard_swish/mul_1/y", "op": "Const", "attr": {"value": {"tensor": {"dtype": "DT_FLOAT", "tensorShape": {}}}, "dtype": {"type": "DT_FLOAT"}}}, {"name": "FeatureExtractor/MobilenetV3/expanded_conv_7/expand/hard_swish/add/y", "op": "Const", "attr": {"dtype": {"type": "DT_FLOAT"}, "value": {"tensor": {"dtype": "DT_FLOAT", "tensorShape": {}}}}}, {"name": "FeatureExtractor/MobilenetV3/expanded_conv_7/depthwise/hard_swish/add/y", "op": "Const", "attr": {"dtype": {"type": "DT_FLOAT"}, "value": {"tensor": {"dtype": "DT_FLOAT", "tensorShape": {}}}}}, {"name": "FeatureExtractor/MobilenetV3/expanded_conv_6/depthwise/hard_swish/mul_1/y", "op": "Const", "attr": {"value": {"tensor": {"dtype": "DT_FLOAT", "tensorShape": {}}}, "dtype": {"type": "DT_FLOAT"}}}, {"name": "FeatureExtractor/MobilenetV3/expanded_conv_6/expand/hard_swish/mul_1/y", "op": "Const", "attr": {"dtype": {"type": "DT_FLOAT"}, "value": {"tensor": {"dtype": "DT_FLOAT", "tensorShape": {}}}}}, {"name": "FeatureExtractor/MobilenetV3/expanded_conv_5/squeeze_excite/Conv_1/mul/y", "op": "Const", "attr": {"dtype": {"type": "DT_FLOAT"}, "value": {"tensor": {"dtype": "DT_FLOAT", "tensorShape": {}}}}}, {"name": "FeatureExtractor/MobilenetV3/expanded_conv_5/squeeze_excite/Mean/reduction_indices", "op": "Const", "attr": {"dtype": {"type": "DT_INT32"}, "value": {"tensor": {"dtype": "DT_INT32", "tensorShape": {"dim": [{"size": "2"}]}}}}}, {"name": "FeatureExtractor/MobilenetV3/expanded_conv_5/squeeze_excite/Conv/weights", "op": "Const", "attr": {"dtype": {"type": "DT_FLOAT"}, "value": {"tensor": {"dtype": "DT_FLOAT", "tensorShape": {"dim": [{"size": "1"}, {"size": "1"}, {"size": "120"}, {"size": "32"}]}}}}}, {"name": "FeatureExtractor/MobilenetV3/expanded_conv_5/squeeze_excite/Conv/biases", "op": "Const", "attr": {"dtype": {"type": "DT_FLOAT"}, "value": {"tensor": {"dtype": "DT_FLOAT", "tensorShape": {"dim": [{"size": "32"}]}}}}}, {"name": "FeatureExtractor/MobilenetV3/expanded_conv_5/squeeze_excite/Conv_1/weights", "op": "Const", "attr": {"value": {"tensor": {"dtype": "DT_FLOAT", "tensorShape": {"dim": [{"size": "1"}, {"size": "1"}, {"size": "32"}, {"size": "120"}]}}}, "dtype": {"type": "DT_FLOAT"}}}, {"name": "FeatureExtractor/MobilenetV3/expanded_conv_5/squeeze_excite/Conv_1/biases", "op": "Const", "attr": {"dtype": {"type": "DT_FLOAT"}, "value": {"tensor": {"dtype": "DT_FLOAT", "tensorShape": {"dim": [{"size": "120"}]}}}}}, {"name": "FeatureExtractor/MobilenetV3/expanded_conv_5/squeeze_excite/Conv_1/add/y", "op": "Const", "attr": {"value": {"tensor": {"dtype": "DT_FLOAT", "tensorShape": {}}}, "dtype": {"type": "DT_FLOAT"}}}, {"name": "FeatureExtractor/MobilenetV3/expanded_conv_4/squeeze_excite/Conv_1/mul/y", "op": "Const", "attr": {"value": {"tensor": {"dtype": "DT_FLOAT", "tensorShape": {}}}, "dtype": {"type": "DT_FLOAT"}}}, {"name": "FeatureExtractor/MobilenetV3/expanded_conv_4/squeeze_excite/Mean/reduction_indices", "op": "Const", "attr": {"dtype": {"type": "DT_INT32"}, "value": {"tensor": {"dtype": "DT_INT32", "tensorShape": {"dim": [{"size": "2"}]}}}}}, {"name": "FeatureExtractor/MobilenetV3/expanded_conv_4/squeeze_excite/Conv/weights", "op": "Const", "attr": {"value": {"tensor": {"dtype": "DT_FLOAT", "tensorShape": {"dim": [{"size": "1"}, {"size": "1"}, {"size": "120"}, {"size": "32"}]}}}, "dtype": {"type": "DT_FLOAT"}}}, {"name": "FeatureExtractor/MobilenetV3/expanded_conv_4/squeeze_excite/Conv/biases", "op": "Const", "attr": {"dtype": {"type": "DT_FLOAT"}, "value": {"tensor": {"dtype": "DT_FLOAT", "tensorShape": {"dim": [{"size": "32"}]}}}}}, {"name": "FeatureExtractor/MobilenetV3/expanded_conv_4/squeeze_excite/Conv_1/weights", "op": "Const", "attr": {"value": {"tensor": {"dtype": "DT_FLOAT", "tensorShape": {"dim": [{"size": "1"}, {"size": "1"}, {"size": "32"}, {"size": "120"}]}}}, "dtype": {"type": "DT_FLOAT"}}}, {"name": "FeatureExtractor/MobilenetV3/expanded_conv_4/squeeze_excite/Conv_1/biases", "op": "Const", "attr": {"value": {"tensor": {"dtype": "DT_FLOAT", "tensorShape": {"dim": [{"size": "120"}]}}}, "dtype": {"type": "DT_FLOAT"}}}, {"name": "FeatureExtractor/MobilenetV3/expanded_conv_4/squeeze_excite/Conv_1/add/y", "op": "Const", "attr": {"value": {"tensor": {"dtype": "DT_FLOAT", "tensorShape": {}}}, "dtype": {"type": "DT_FLOAT"}}}, {"name": "FeatureExtractor/MobilenetV3/expanded_conv_3/squeeze_excite/Conv_1/mul/y", "op": "Const", "attr": {"value": {"tensor": {"dtype": "DT_FLOAT", "tensorShape": {}}}, "dtype": {"type": "DT_FLOAT"}}}, {"name": "FeatureExtractor/MobilenetV3/expanded_conv_3/squeeze_excite/Mean/reduction_indices", "op": "Const", "attr": {"dtype": {"type": "DT_INT32"}, "value": {"tensor": {"dtype": "DT_INT32", "tensorShape": {"dim": [{"size": "2"}]}}}}}, {"name": "FeatureExtractor/MobilenetV3/expanded_conv_3/squeeze_excite/Conv/weights", "op": "Const", "attr": {"value": {"tensor": {"dtype": "DT_FLOAT", "tensorShape": {"dim": [{"size": "1"}, {"size": "1"}, {"size": "72"}, {"size": "24"}]}}}, "dtype": {"type": "DT_FLOAT"}}}, {"name": "FeatureExtractor/MobilenetV3/expanded_conv_3/squeeze_excite/Conv/biases", "op": "Const", "attr": {"dtype": {"type": "DT_FLOAT"}, "value": {"tensor": {"dtype": "DT_FLOAT", "tensorShape": {"dim": [{"size": "24"}]}}}}}, {"name": "FeatureExtractor/MobilenetV3/expanded_conv_3/squeeze_excite/Conv_1/weights", "op": "Const", "attr": {"value": {"tensor": {"dtype": "DT_FLOAT", "tensorShape": {"dim": [{"size": "1"}, {"size": "1"}, {"size": "24"}, {"size": "72"}]}}}, "dtype": {"type": "DT_FLOAT"}}}, {"name": "FeatureExtractor/MobilenetV3/expanded_conv_3/squeeze_excite/Conv_1/biases", "op": "Const", "attr": {"dtype": {"type": "DT_FLOAT"}, "value": {"tensor": {"dtype": "DT_FLOAT", "tensorShape": {"dim": [{"size": "72"}]}}}}}, {"name": "FeatureExtractor/MobilenetV3/expanded_conv_3/squeeze_excite/Conv_1/add/y", "op": "Const", "attr": {"value": {"tensor": {"dtype": "DT_FLOAT", "tensorShape": {}}}, "dtype": {"type": "DT_FLOAT"}}}, {"name": "FeatureExtractor/MobilenetV3/Conv/hard_swish/mul_1/y", "op": "Const", "attr": {"dtype": {"type": "DT_FLOAT"}, "value": {"tensor": {"dtype": "DT_FLOAT", "tensorShape": {}}}}}, {"name": "Preprocessor/map/TensorArrayStack/range/start", "op": "Const", "attr": {"dtype": {"type": "DT_INT32"}, "value": {"tensor": {"dtype": "DT_INT32", "tensorShape": {}}}}}, {"name": "Preprocessor/map/TensorArrayStack/range/delta", "op": "Const", "attr": {"value": {"tensor": {"dtype": "DT_INT32", "tensorShape": {}}}, "dtype": {"type": "DT_INT32"}}}, {"name": "Preprocessor/map/TensorArrayUnstack/range/start", "op": "Const", "attr": {"value": {"tensor": {"dtype": "DT_INT32", "tensorShape": {}}}, "dtype": {"type": "DT_INT32"}}}, {"name": "Preprocessor/map/TensorArrayUnstack/strided_slice/stack", "op": "Const", "attr": {"value": {"tensor": {"dtype": "DT_INT32", "tensorShape": {"dim": [{"size": "1"}]}}}, "dtype": {"type": "DT_INT32"}}}, {"name": "Preprocessor/map/TensorArrayUnstack/strided_slice/stack_1", "op": "Const", "attr": {"dtype": {"type": "DT_INT32"}, "value": {"tensor": {"dtype": "DT_INT32", "tensorShape": {"dim": [{"size": "1"}]}}}}}, {"name": "Preprocessor/map/TensorArrayUnstack/strided_slice/stack_2", "op": "Const", "attr": {"value": {"tensor": {"dtype": "DT_INT32", "tensorShape": {"dim": [{"size": "1"}]}}}, "dtype": {"type": "DT_INT32"}}}, {"name": "Preprocessor/map/TensorArrayUnstack/range/delta", "op": "Const", "attr": {"dtype": {"type": "DT_INT32"}, "value": {"tensor": {"dtype": "DT_INT32", "tensorShape": {}}}}}, {"name": "Preprocessor/map/Const", "op": "Const", "attr": {"value": {"tensor": {"dtype": "DT_INT32", "tensorShape": {}}}, "dtype": {"type": "DT_INT32"}}}, {"name": "Preprocessor/map/while/iteration_counter", "op": "Const", "attr": {"dtype": {"type": "DT_INT32"}, "value": {"tensor": {"dtype": "DT_INT32", "tensorShape": {}}}}}, {"name": "Preprocessor/mul/x", "op": "Const", "attr": {"dtype": {"type": "DT_FLOAT"}, "value": {"tensor": {"dtype": "DT_FLOAT", "tensorShape": {}}}}}, {"name": "image_tensor", "op": "Placeholder", "attr": {"dtype": {"type": "DT_UINT8"}, "shape": {"shape": {"dim": [{"size": "-1"}, {"size": "-1"}, {"size": "-1"}, {"size": "3"}]}}}}, {"name": "Preprocessor/sub/y", "op": "Const", "attr": {"dtype": {"type": "DT_FLOAT"}, "value": {"tensor": {"dtype": "DT_FLOAT", "tensorShape": {}}}}}, {"name": "Preprocessor/map/strided_slice/stack", "op": "Const", "attr": {"dtype": {"type": "DT_INT32"}, "value": {"tensor": {"dtype": "DT_INT32", "tensorShape": {"dim": [{"size": "1"}]}}}}}, {"name": "Preprocessor/map/strided_slice/stack_1", "op": "Const", "attr": {"dtype": {"type": "DT_INT32"}, "value": {"tensor": {"dtype": "DT_INT32", "tensorShape": {"dim": [{"size": "1"}]}}}}}, {"name": "Preprocessor/map/strided_slice/stack_2", "op": "Const", "attr": {"value": {"tensor": {"dtype": "DT_INT32", "tensorShape": {"dim": [{"size": "1"}]}}}, "dtype": {"type": "DT_INT32"}}}, {"name": "FeatureExtractor/MobilenetV3/Conv/hard_swish/add/y", "op": "Const", "attr": {"value": {"tensor": {"dtype": "DT_FLOAT", "tensorShape": {}}}, "dtype": {"type": "DT_FLOAT"}}}, {"name": "FeatureExtractor/MobilenetV3/expanded_conv_6/expand/hard_swish/add/y", "op": "Const", "attr": {"dtype": {"type": "DT_FLOAT"}, "value": {"tensor": {"dtype": "DT_FLOAT", "tensorShape": {}}}}}, {"name": "FeatureExtractor/MobilenetV3/expanded_conv_6/depthwise/hard_swish/add/y", "op": "Const", "attr": {"value": {"tensor": {"dtype": "DT_FLOAT", "tensorShape": {}}}, "dtype": {"type": "DT_FLOAT"}}}, {"name": "FeatureExtractor/MobilenetV3/expanded_conv_10/expand/hard_swish/add/y", "op": "Const", "attr": {"value": {"tensor": {"dtype": "DT_FLOAT", "tensorShape": {}}}, "dtype": {"type": "DT_FLOAT"}}}, {"name": "FeatureExtractor/MobilenetV3/expanded_conv_10/depthwise/hard_swish/add/y", "op": "Const", "attr": {"value": {"tensor": {"dtype": "DT_FLOAT", "tensorShape": {}}}, "dtype": {"type": "DT_FLOAT"}}}, {"name": "FeatureExtractor/MobilenetV3/expanded_conv_12/expand/hard_swish/add/y", "op": "Const", "attr": {"dtype": {"type": "DT_FLOAT"}, "value": {"tensor": {"dtype": "DT_FLOAT", "tensorShape": {}}}}}, {"name": "FeatureExtractor/MobilenetV3/expanded_conv_12/depthwise/hard_swish/add/y", "op": "Const", "attr": {"dtype": {"type": "DT_FLOAT"}, "value": {"tensor": {"dtype": "DT_FLOAT", "tensorShape": {}}}}}, {"name": "FeatureExtractor/MobilenetV3/Conv_1/hard_swish/add/y", "op": "Const", "attr": {"dtype": {"type": "DT_FLOAT"}, "value": {"tensor": {"dtype": "DT_FLOAT", "tensorShape": {}}}}}, {"name": "BoxPredictor_5/strided_slice_1/stack", "op": "Const", "attr": {"value": {"tensor": {"dtype": "DT_INT32", "tensorShape": {"dim": [{"size": "1"}]}}}, "dtype": {"type": "DT_INT32"}}}, {"name": "BoxPredictor_5/strided_slice_1/stack_1", "op": "Const", "attr": {"dtype": {"type": "DT_INT32"}, "value": {"tensor": {"dtype": "DT_INT32", "tensorShape": {"dim": [{"size": "1"}]}}}}}, {"name": "BoxPredictor_5/strided_slice_1/stack_2", "op": "Const", "attr": {"value": {"tensor": {"dtype": "DT_INT32", "tensorShape": {"dim": [{"size": "1"}]}}}, "dtype": {"type": "DT_INT32"}}}, {"name": "BoxPredictor_5/Reshape_1/shape/1", "op": "Const", "attr": {"value": {"tensor": {"dtype": "DT_INT32", "tensorShape": {}}}, "dtype": {"type": "DT_INT32"}}}, {"name": "BoxPredictor_5/Reshape_1/shape/2", "op": "Const", "attr": {"value": {"tensor": {"dtype": "DT_INT32", "tensorShape": {}}}, "dtype": {"type": "DT_INT32"}}}, {"name": "concat_1/axis", "op": "Const", "attr": {"value": {"tensor": {"dtype": "DT_INT32", "tensorShape": {}}}, "dtype": {"type": "DT_INT32"}}}, {"name": "FeatureExtractor/MobilenetV3/Conv/Conv2D_weights", "op": "Const", "attr": {"dtype": {"type": "DT_FLOAT"}, "value": {"tensor": {"dtype": "DT_FLOAT", "tensorShape": {"dim": [{"size": "3"}, {"size": "3"}, {"size": "3"}, {"size": "16"}]}}}}}, {"name": "FeatureExtractor/MobilenetV3/Conv/Conv2D_bn_offset", "op": "Const", "attr": {"value": {"tensor": {"dtype": "DT_FLOAT", "tensorShape": {"dim": [{"size": "16"}]}}}, "dtype": {"type": "DT_FLOAT"}}}, {"name": "FeatureExtractor/MobilenetV3/expanded_conv/depthwise/depthwise_weights", "op": "Const", "attr": {"dtype": {"type": "DT_FLOAT"}, "value": {"tensor": {"dtype": "DT_FLOAT", "tensorShape": {"dim": [{"size": "3"}, {"size": "3"}, {"size": "16"}, {"size": "1"}]}}}}}, {"name": "FeatureExtractor/MobilenetV3/expanded_conv/depthwise/depthwise_bn_offset", "op": "Const", "attr": {"dtype": {"type": "DT_FLOAT"}, "value": {"tensor": {"dtype": "DT_FLOAT", "tensorShape": {"dim": [{"size": "16"}]}}}}}, {"name": "FeatureExtractor/MobilenetV3/expanded_conv/project/Conv2D_weights", "op": "Const", "attr": {"value": {"tensor": {"dtype": "DT_FLOAT", "tensorShape": {"dim": [{"size": "1"}, {"size": "1"}, {"size": "16"}, {"size": "16"}]}}}, "dtype": {"type": "DT_FLOAT"}}}, {"name": "FeatureExtractor/MobilenetV3/expanded_conv/project/Conv2D_bn_offset", "op": "Const", "attr": {"value": {"tensor": {"dtype": "DT_FLOAT", "tensorShape": {"dim": [{"size": "16"}]}}}, "dtype": {"type": "DT_FLOAT"}}}, {"name": "FeatureExtractor/MobilenetV3/expanded_conv_1/expand/Conv2D_weights", "op": "Const", "attr": {"dtype": {"type": "DT_FLOAT"}, "value": {"tensor": {"dtype": "DT_FLOAT", "tensorShape": {"dim": [{"size": "1"}, {"size": "1"}, {"size": "16"}, {"size": "64"}]}}}}}, {"name": "FeatureExtractor/MobilenetV3/expanded_conv_1/expand/Conv2D_bn_offset", "op": "Const", "attr": {"value": {"tensor": {"dtype": "DT_FLOAT", "tensorShape": {"dim": [{"size": "64"}]}}}, "dtype": {"type": "DT_FLOAT"}}}, {"name": "FeatureExtractor/MobilenetV3/expanded_conv_1/depthwise/depthwise_weights", "op": "Const", "attr": {"value": {"tensor": {"dtype": "DT_FLOAT", "tensorShape": {"dim": [{"size": "3"}, {"size": "3"}, {"size": "64"}, {"size": "1"}]}}}, "dtype": {"type": "DT_FLOAT"}}}, {"name": "FeatureExtractor/MobilenetV3/expanded_conv_1/depthwise/depthwise_bn_offset", "op": "Const", "attr": {"value": {"tensor": {"dtype": "DT_FLOAT", "tensorShape": {"dim": [{"size": "64"}]}}}, "dtype": {"type": "DT_FLOAT"}}}, {"name": "FeatureExtractor/MobilenetV3/expanded_conv_1/project/Conv2D_weights", "op": "Const", "attr": {"value": {"tensor": {"dtype": "DT_FLOAT", "tensorShape": {"dim": [{"size": "1"}, {"size": "1"}, {"size": "64"}, {"size": "24"}]}}}, "dtype": {"type": "DT_FLOAT"}}}, {"name": "FeatureExtractor/MobilenetV3/expanded_conv_1/project/Conv2D_bn_offset", "op": "Const", "attr": {"value": {"tensor": {"dtype": "DT_FLOAT", "tensorShape": {"dim": [{"size": "24"}]}}}, "dtype": {"type": "DT_FLOAT"}}}, {"name": "FeatureExtractor/MobilenetV3/expanded_conv_2/expand/Conv2D_weights", "op": "Const", "attr": {"dtype": {"type": "DT_FLOAT"}, "value": {"tensor": {"dtype": "DT_FLOAT", "tensorShape": {"dim": [{"size": "1"}, {"size": "1"}, {"size": "24"}, {"size": "72"}]}}}}}, {"name": "FeatureExtractor/MobilenetV3/expanded_conv_2/expand/Conv2D_bn_offset", "op": "Const", "attr": {"value": {"tensor": {"dtype": "DT_FLOAT", "tensorShape": {"dim": [{"size": "72"}]}}}, "dtype": {"type": "DT_FLOAT"}}}, {"name": "FeatureExtractor/MobilenetV3/expanded_conv_2/depthwise/depthwise_weights", "op": "Const", "attr": {"value": {"tensor": {"dtype": "DT_FLOAT", "tensorShape": {"dim": [{"size": "3"}, {"size": "3"}, {"size": "72"}, {"size": "1"}]}}}, "dtype": {"type": "DT_FLOAT"}}}, {"name": "FeatureExtractor/MobilenetV3/expanded_conv_2/depthwise/depthwise_bn_offset", "op": "Const", "attr": {"value": {"tensor": {"dtype": "DT_FLOAT", "tensorShape": {"dim": [{"size": "72"}]}}}, "dtype": {"type": "DT_FLOAT"}}}, {"name": "FeatureExtractor/MobilenetV3/expanded_conv_2/project/Conv2D_weights", "op": "Const", "attr": {"value": {"tensor": {"dtype": "DT_FLOAT", "tensorShape": {"dim": [{"size": "1"}, {"size": "1"}, {"size": "72"}, {"size": "24"}]}}}, "dtype": {"type": "DT_FLOAT"}}}, {"name": "FeatureExtractor/MobilenetV3/expanded_conv_2/project/Conv2D_bn_offset", "op": "Const", "attr": {"dtype": {"type": "DT_FLOAT"}, "value": {"tensor": {"dtype": "DT_FLOAT", "tensorShape": {"dim": [{"size": "24"}]}}}}}, {"name": "FeatureExtractor/MobilenetV3/expanded_conv_3/expand/Conv2D_weights", "op": "Const", "attr": {"dtype": {"type": "DT_FLOAT"}, "value": {"tensor": {"dtype": "DT_FLOAT", "tensorShape": {"dim": [{"size": "1"}, {"size": "1"}, {"size": "24"}, {"size": "72"}]}}}}}, {"name": "FeatureExtractor/MobilenetV3/expanded_conv_3/expand/Conv2D_bn_offset", "op": "Const", "attr": {"dtype": {"type": "DT_FLOAT"}, "value": {"tensor": {"dtype": "DT_FLOAT", "tensorShape": {"dim": [{"size": "72"}]}}}}}, {"name": "FeatureExtractor/MobilenetV3/expanded_conv_3/depthwise/depthwise_weights", "op": "Const", "attr": {"value": {"tensor": {"dtype": "DT_FLOAT", "tensorShape": {"dim": [{"size": "5"}, {"size": "5"}, {"size": "72"}, {"size": "1"}]}}}, "dtype": {"type": "DT_FLOAT"}}}, {"name": "FeatureExtractor/MobilenetV3/expanded_conv_3/depthwise/depthwise_bn_offset", "op": "Const", "attr": {"value": {"tensor": {"dtype": "DT_FLOAT", "tensorShape": {"dim": [{"size": "72"}]}}}, "dtype": {"type": "DT_FLOAT"}}}, {"name": "FeatureExtractor/MobilenetV3/expanded_conv_3/project/Conv2D_weights", "op": "Const", "attr": {"dtype": {"type": "DT_FLOAT"}, "value": {"tensor": {"dtype": "DT_FLOAT", "tensorShape": {"dim": [{"size": "1"}, {"size": "1"}, {"size": "72"}, {"size": "40"}]}}}}}, {"name": "FeatureExtractor/MobilenetV3/expanded_conv_3/project/Conv2D_bn_offset", "op": "Const", "attr": {"value": {"tensor": {"dtype": "DT_FLOAT", "tensorShape": {"dim": [{"size": "40"}]}}}, "dtype": {"type": "DT_FLOAT"}}}, {"name": "FeatureExtractor/MobilenetV3/expanded_conv_4/expand/Conv2D_weights", "op": "Const", "attr": {"value": {"tensor": {"dtype": "DT_FLOAT", "tensorShape": {"dim": [{"size": "1"}, {"size": "1"}, {"size": "40"}, {"size": "120"}]}}}, "dtype": {"type": "DT_FLOAT"}}}, {"name": "FeatureExtractor/MobilenetV3/expanded_conv_4/expand/Conv2D_bn_offset", "op": "Const", "attr": {"dtype": {"type": "DT_FLOAT"}, "value": {"tensor": {"dtype": "DT_FLOAT", "tensorShape": {"dim": [{"size": "120"}]}}}}}, {"name": "FeatureExtractor/MobilenetV3/expanded_conv_4/depthwise/depthwise_weights", "op": "Const", "attr": {"value": {"tensor": {"dtype": "DT_FLOAT", "tensorShape": {"dim": [{"size": "5"}, {"size": "5"}, {"size": "120"}, {"size": "1"}]}}}, "dtype": {"type": "DT_FLOAT"}}}, {"name": "FeatureExtractor/MobilenetV3/expanded_conv_4/depthwise/depthwise_bn_offset", "op": "Const", "attr": {"value": {"tensor": {"dtype": "DT_FLOAT", "tensorShape": {"dim": [{"size": "120"}]}}}, "dtype": {"type": "DT_FLOAT"}}}, {"name": "FeatureExtractor/MobilenetV3/expanded_conv_4/project/Conv2D_weights", "op": "Const", "attr": {"dtype": {"type": "DT_FLOAT"}, "value": {"tensor": {"dtype": "DT_FLOAT", "tensorShape": {"dim": [{"size": "1"}, {"size": "1"}, {"size": "120"}, {"size": "40"}]}}}}}, {"name": "FeatureExtractor/MobilenetV3/expanded_conv_4/project/Conv2D_bn_offset", "op": "Const", "attr": {"value": {"tensor": {"dtype": "DT_FLOAT", "tensorShape": {"dim": [{"size": "40"}]}}}, "dtype": {"type": "DT_FLOAT"}}}, {"name": "FeatureExtractor/MobilenetV3/expanded_conv_5/expand/Conv2D_weights", "op": "Const", "attr": {"value": {"tensor": {"dtype": "DT_FLOAT", "tensorShape": {"dim": [{"size": "1"}, {"size": "1"}, {"size": "40"}, {"size": "120"}]}}}, "dtype": {"type": "DT_FLOAT"}}}, {"name": "FeatureExtractor/MobilenetV3/expanded_conv_5/expand/Conv2D_bn_offset", "op": "Const", "attr": {"dtype": {"type": "DT_FLOAT"}, "value": {"tensor": {"dtype": "DT_FLOAT", "tensorShape": {"dim": [{"size": "120"}]}}}}}, {"name": "FeatureExtractor/MobilenetV3/expanded_conv_5/depthwise/depthwise_weights", "op": "Const", "attr": {"value": {"tensor": {"dtype": "DT_FLOAT", "tensorShape": {"dim": [{"size": "5"}, {"size": "5"}, {"size": "120"}, {"size": "1"}]}}}, "dtype": {"type": "DT_FLOAT"}}}, {"name": "FeatureExtractor/MobilenetV3/expanded_conv_5/depthwise/depthwise_bn_offset", "op": "Const", "attr": {"dtype": {"type": "DT_FLOAT"}, "value": {"tensor": {"dtype": "DT_FLOAT", "tensorShape": {"dim": [{"size": "120"}]}}}}}, {"name": "FeatureExtractor/MobilenetV3/expanded_conv_5/project/Conv2D_weights", "op": "Const", "attr": {"dtype": {"type": "DT_FLOAT"}, "value": {"tensor": {"dtype": "DT_FLOAT", "tensorShape": {"dim": [{"size": "1"}, {"size": "1"}, {"size": "120"}, {"size": "40"}]}}}}}, {"name": "FeatureExtractor/MobilenetV3/expanded_conv_5/project/Conv2D_bn_offset", "op": "Const", "attr": {"dtype": {"type": "DT_FLOAT"}, "value": {"tensor": {"dtype": "DT_FLOAT", "tensorShape": {"dim": [{"size": "40"}]}}}}}, {"name": "FeatureExtractor/MobilenetV3/expanded_conv_6/expand/Conv2D_weights", "op": "Const", "attr": {"dtype": {"type": "DT_FLOAT"}, "value": {"tensor": {"dtype": "DT_FLOAT", "tensorShape": {"dim": [{"size": "1"}, {"size": "1"}, {"size": "40"}, {"size": "240"}]}}}}}, {"name": "FeatureExtractor/MobilenetV3/expanded_conv_6/expand/Conv2D_bn_offset", "op": "Const", "attr": {"dtype": {"type": "DT_FLOAT"}, "value": {"tensor": {"dtype": "DT_FLOAT", "tensorShape": {"dim": [{"size": "240"}]}}}}}, {"name": "FeatureExtractor/MobilenetV3/expanded_conv_6/depthwise/depthwise_weights", "op": "Const", "attr": {"dtype": {"type": "DT_FLOAT"}, "value": {"tensor": {"dtype": "DT_FLOAT", "tensorShape": {"dim": [{"size": "3"}, {"size": "3"}, {"size": "240"}, {"size": "1"}]}}}}}, {"name": "FeatureExtractor/MobilenetV3/expanded_conv_6/depthwise/depthwise_bn_offset", "op": "Const", "attr": {"dtype": {"type": "DT_FLOAT"}, "value": {"tensor": {"dtype": "DT_FLOAT", "tensorShape": {"dim": [{"size": "240"}]}}}}}, {"name": "FeatureExtractor/MobilenetV3/expanded_conv_6/project/Conv2D_weights", "op": "Const", "attr": {"dtype": {"type": "DT_FLOAT"}, "value": {"tensor": {"dtype": "DT_FLOAT", "tensorShape": {"dim": [{"size": "1"}, {"size": "1"}, {"size": "240"}, {"size": "80"}]}}}}}, {"name": "FeatureExtractor/MobilenetV3/expanded_conv_6/project/Conv2D_bn_offset", "op": "Const", "attr": {"value": {"tensor": {"dtype": "DT_FLOAT", "tensorShape": {"dim": [{"size": "80"}]}}}, "dtype": {"type": "DT_FLOAT"}}}, {"name": "FeatureExtractor/MobilenetV3/expanded_conv_7/expand/Conv2D_weights", "op": "Const", "attr": {"value": {"tensor": {"dtype": "DT_FLOAT", "tensorShape": {"dim": [{"size": "1"}, {"size": "1"}, {"size": "80"}, {"size": "200"}]}}}, "dtype": {"type": "DT_FLOAT"}}}, {"name": "FeatureExtractor/MobilenetV3/expanded_conv_7/expand/Conv2D_bn_offset", "op": "Const", "attr": {"value": {"tensor": {"dtype": "DT_FLOAT", "tensorShape": {"dim": [{"size": "200"}]}}}, "dtype": {"type": "DT_FLOAT"}}}, {"name": "FeatureExtractor/MobilenetV3/expanded_conv_7/depthwise/depthwise_weights", "op": "Const", "attr": {"dtype": {"type": "DT_FLOAT"}, "value": {"tensor": {"dtype": "DT_FLOAT", "tensorShape": {"dim": [{"size": "3"}, {"size": "3"}, {"size": "200"}, {"size": "1"}]}}}}}, {"name": "FeatureExtractor/MobilenetV3/expanded_conv_7/depthwise/depthwise_bn_offset", "op": "Const", "attr": {"value": {"tensor": {"dtype": "DT_FLOAT", "tensorShape": {"dim": [{"size": "200"}]}}}, "dtype": {"type": "DT_FLOAT"}}}, {"name": "FeatureExtractor/MobilenetV3/expanded_conv_7/project/Conv2D_weights", "op": "Const", "attr": {"dtype": {"type": "DT_FLOAT"}, "value": {"tensor": {"dtype": "DT_FLOAT", "tensorShape": {"dim": [{"size": "1"}, {"size": "1"}, {"size": "200"}, {"size": "80"}]}}}}}, {"name": "FeatureExtractor/MobilenetV3/expanded_conv_7/project/Conv2D_bn_offset", "op": "Const", "attr": {"dtype": {"type": "DT_FLOAT"}, "value": {"tensor": {"dtype": "DT_FLOAT", "tensorShape": {"dim": [{"size": "80"}]}}}}}, {"name": "FeatureExtractor/MobilenetV3/expanded_conv_8/expand/Conv2D_weights", "op": "Const", "attr": {"value": {"tensor": {"dtype": "DT_FLOAT", "tensorShape": {"dim": [{"size": "1"}, {"size": "1"}, {"size": "80"}, {"size": "184"}]}}}, "dtype": {"type": "DT_FLOAT"}}}, {"name": "FeatureExtractor/MobilenetV3/expanded_conv_8/expand/Conv2D_bn_offset", "op": "Const", "attr": {"value": {"tensor": {"dtype": "DT_FLOAT", "tensorShape": {"dim": [{"size": "184"}]}}}, "dtype": {"type": "DT_FLOAT"}}}, {"name": "FeatureExtractor/MobilenetV3/expanded_conv_8/depthwise/depthwise_weights", "op": "Const", "attr": {"dtype": {"type": "DT_FLOAT"}, "value": {"tensor": {"dtype": "DT_FLOAT", "tensorShape": {"dim": [{"size": "3"}, {"size": "3"}, {"size": "184"}, {"size": "1"}]}}}}}, {"name": "FeatureExtractor/MobilenetV3/expanded_conv_8/depthwise/depthwise_bn_offset", "op": "Const", "attr": {"value": {"tensor": {"dtype": "DT_FLOAT", "tensorShape": {"dim": [{"size": "184"}]}}}, "dtype": {"type": "DT_FLOAT"}}}, {"name": "FeatureExtractor/MobilenetV3/expanded_conv_8/project/Conv2D_weights", "op": "Const", "attr": {"value": {"tensor": {"dtype": "DT_FLOAT", "tensorShape": {"dim": [{"size": "1"}, {"size": "1"}, {"size": "184"}, {"size": "80"}]}}}, "dtype": {"type": "DT_FLOAT"}}}, {"name": "FeatureExtractor/MobilenetV3/expanded_conv_8/project/Conv2D_bn_offset", "op": "Const", "attr": {"dtype": {"type": "DT_FLOAT"}, "value": {"tensor": {"dtype": "DT_FLOAT", "tensorShape": {"dim": [{"size": "80"}]}}}}}, {"name": "FeatureExtractor/MobilenetV3/expanded_conv_9/expand/Conv2D_weights", "op": "Const", "attr": {"value": {"tensor": {"dtype": "DT_FLOAT", "tensorShape": {"dim": [{"size": "1"}, {"size": "1"}, {"size": "80"}, {"size": "184"}]}}}, "dtype": {"type": "DT_FLOAT"}}}, {"name": "FeatureExtractor/MobilenetV3/expanded_conv_9/expand/Conv2D_bn_offset", "op": "Const", "attr": {"dtype": {"type": "DT_FLOAT"}, "value": {"tensor": {"dtype": "DT_FLOAT", "tensorShape": {"dim": [{"size": "184"}]}}}}}, {"name": "FeatureExtractor/MobilenetV3/expanded_conv_9/depthwise/depthwise_weights", "op": "Const", "attr": {"value": {"tensor": {"dtype": "DT_FLOAT", "tensorShape": {"dim": [{"size": "3"}, {"size": "3"}, {"size": "184"}, {"size": "1"}]}}}, "dtype": {"type": "DT_FLOAT"}}}, {"name": "FeatureExtractor/MobilenetV3/expanded_conv_9/depthwise/depthwise_bn_offset", "op": "Const", "attr": {"dtype": {"type": "DT_FLOAT"}, "value": {"tensor": {"dtype": "DT_FLOAT", "tensorShape": {"dim": [{"size": "184"}]}}}}}, {"name": "FeatureExtractor/MobilenetV3/expanded_conv_9/project/Conv2D_weights", "op": "Const", "attr": {"value": {"tensor": {"dtype": "DT_FLOAT", "tensorShape": {"dim": [{"size": "1"}, {"size": "1"}, {"size": "184"}, {"size": "80"}]}}}, "dtype": {"type": "DT_FLOAT"}}}, {"name": "FeatureExtractor/MobilenetV3/expanded_conv_9/project/Conv2D_bn_offset", "op": "Const", "attr": {"value": {"tensor": {"dtype": "DT_FLOAT", "tensorShape": {"dim": [{"size": "80"}]}}}, "dtype": {"type": "DT_FLOAT"}}}, {"name": "FeatureExtractor/MobilenetV3/expanded_conv_10/expand/Conv2D_weights", "op": "Const", "attr": {"value": {"tensor": {"dtype": "DT_FLOAT", "tensorShape": {"dim": [{"size": "1"}, {"size": "1"}, {"size": "80"}, {"size": "480"}]}}}, "dtype": {"type": "DT_FLOAT"}}}, {"name": "FeatureExtractor/MobilenetV3/expanded_conv_10/expand/Conv2D_bn_offset", "op": "Const", "attr": {"dtype": {"type": "DT_FLOAT"}, "value": {"tensor": {"dtype": "DT_FLOAT", "tensorShape": {"dim": [{"size": "480"}]}}}}}, {"name": "FeatureExtractor/MobilenetV3/expanded_conv_10/depthwise/depthwise_weights", "op": "Const", "attr": {"dtype": {"type": "DT_FLOAT"}, "value": {"tensor": {"dtype": "DT_FLOAT", "tensorShape": {"dim": [{"size": "3"}, {"size": "3"}, {"size": "480"}, {"size": "1"}]}}}}}, {"name": "FeatureExtractor/MobilenetV3/expanded_conv_10/depthwise/depthwise_bn_offset", "op": "Const", "attr": {"value": {"tensor": {"dtype": "DT_FLOAT", "tensorShape": {"dim": [{"size": "480"}]}}}, "dtype": {"type": "DT_FLOAT"}}}, {"name": "FeatureExtractor/MobilenetV3/expanded_conv_10/project/Conv2D_weights", "op": "Const", "attr": {"value": {"tensor": {"dtype": "DT_FLOAT", "tensorShape": {"dim": [{"size": "1"}, {"size": "1"}, {"size": "480"}, {"size": "112"}]}}}, "dtype": {"type": "DT_FLOAT"}}}, {"name": "FeatureExtractor/MobilenetV3/expanded_conv_10/project/Conv2D_bn_offset", "op": "Const", "attr": {"value": {"tensor": {"dtype": "DT_FLOAT", "tensorShape": {"dim": [{"size": "112"}]}}}, "dtype": {"type": "DT_FLOAT"}}}, {"name": "FeatureExtractor/MobilenetV3/expanded_conv_11/expand/Conv2D_weights", "op": "Const", "attr": {"value": {"tensor": {"dtype": "DT_FLOAT", "tensorShape": {"dim": [{"size": "1"}, {"size": "1"}, {"size": "112"}, {"size": "672"}]}}}, "dtype": {"type": "DT_FLOAT"}}}, {"name": "FeatureExtractor/MobilenetV3/expanded_conv_11/expand/Conv2D_bn_offset", "op": "Const", "attr": {"value": {"tensor": {"dtype": "DT_FLOAT", "tensorShape": {"dim": [{"size": "672"}]}}}, "dtype": {"type": "DT_FLOAT"}}}, {"name": "FeatureExtractor/MobilenetV3/expanded_conv_11/depthwise/depthwise_weights", "op": "Const", "attr": {"value": {"tensor": {"dtype": "DT_FLOAT", "tensorShape": {"dim": [{"size": "3"}, {"size": "3"}, {"size": "672"}, {"size": "1"}]}}}, "dtype": {"type": "DT_FLOAT"}}}, {"name": "FeatureExtractor/MobilenetV3/expanded_conv_11/depthwise/depthwise_bn_offset", "op": "Const", "attr": {"dtype": {"type": "DT_FLOAT"}, "value": {"tensor": {"dtype": "DT_FLOAT", "tensorShape": {"dim": [{"size": "672"}]}}}}}, {"name": "FeatureExtractor/MobilenetV3/expanded_conv_11/project/Conv2D_weights", "op": "Const", "attr": {"value": {"tensor": {"dtype": "DT_FLOAT", "tensorShape": {"dim": [{"size": "1"}, {"size": "1"}, {"size": "672"}, {"size": "112"}]}}}, "dtype": {"type": "DT_FLOAT"}}}, {"name": "FeatureExtractor/MobilenetV3/expanded_conv_11/project/Conv2D_bn_offset", "op": "Const", "attr": {"dtype": {"type": "DT_FLOAT"}, "value": {"tensor": {"dtype": "DT_FLOAT", "tensorShape": {"dim": [{"size": "112"}]}}}}}, {"name": "FeatureExtractor/MobilenetV3/expanded_conv_12/expand/Conv2D_weights", "op": "Const", "attr": {"value": {"tensor": {"dtype": "DT_FLOAT", "tensorShape": {"dim": [{"size": "1"}, {"size": "1"}, {"size": "112"}, {"size": "672"}]}}}, "dtype": {"type": "DT_FLOAT"}}}, {"name": "FeatureExtractor/MobilenetV3/expanded_conv_12/expand/Conv2D_bn_offset", "op": "Const", "attr": {"value": {"tensor": {"dtype": "DT_FLOAT", "tensorShape": {"dim": [{"size": "672"}]}}}, "dtype": {"type": "DT_FLOAT"}}}, {"name": "BoxPredictor_0/BoxEncodingPredictor_depthwise/depthwise_weights", "op": "Const", "attr": {"dtype": {"type": "DT_FLOAT"}, "value": {"tensor": {"dtype": "DT_FLOAT", "tensorShape": {"dim": [{"size": "3"}, {"size": "3"}, {"size": "672"}, {"size": "1"}]}}}}}, {"name": "BoxPredictor_0/BoxEncodingPredictor_depthwise/depthwise_bn_offset", "op": "Const", "attr": {"dtype": {"type": "DT_FLOAT"}, "value": {"tensor": {"dtype": "DT_FLOAT", "tensorShape": {"dim": [{"size": "672"}]}}}}}, {"name": "BoxPredictor_0/ClassPredictor_depthwise/depthwise_weights", "op": "Const", "attr": {"dtype": {"type": "DT_FLOAT"}, "value": {"tensor": {"dtype": "DT_FLOAT", "tensorShape": {"dim": [{"size": "3"}, {"size": "3"}, {"size": "672"}, {"size": "1"}]}}}}}, {"name": "BoxPredictor_0/ClassPredictor_depthwise/depthwise_bn_offset", "op": "Const", "attr": {"dtype": {"type": "DT_FLOAT"}, "value": {"tensor": {"dtype": "DT_FLOAT", "tensorShape": {"dim": [{"size": "672"}]}}}}}, {"name": "FeatureExtractor/MobilenetV3/expanded_conv_12/depthwise/depthwise_weights", "op": "Const", "attr": {"value": {"tensor": {"dtype": "DT_FLOAT", "tensorShape": {"dim": [{"size": "5"}, {"size": "5"}, {"size": "672"}, {"size": "1"}]}}}, "dtype": {"type": "DT_FLOAT"}}}, {"name": "FeatureExtractor/MobilenetV3/expanded_conv_12/depthwise/depthwise_bn_offset", "op": "Const", "attr": {"dtype": {"type": "DT_FLOAT"}, "value": {"tensor": {"dtype": "DT_FLOAT", "tensorShape": {"dim": [{"size": "672"}]}}}}}, {"name": "FeatureExtractor/MobilenetV3/expanded_conv_12/project/Conv2D_weights", "op": "Const", "attr": {"value": {"tensor": {"dtype": "DT_FLOAT", "tensorShape": {"dim": [{"size": "1"}, {"size": "1"}, {"size": "672"}, {"size": "80"}]}}}, "dtype": {"type": "DT_FLOAT"}}}, {"name": "FeatureExtractor/MobilenetV3/expanded_conv_12/project/Conv2D_bn_offset", "op": "Const", "attr": {"dtype": {"type": "DT_FLOAT"}, "value": {"tensor": {"dtype": "DT_FLOAT", "tensorShape": {"dim": [{"size": "80"}]}}}}}, {"name": "FeatureExtractor/MobilenetV3/expanded_conv_13/expand/Conv2D_weights", "op": "Const", "attr": {"value": {"tensor": {"dtype": "DT_FLOAT", "tensorShape": {"dim": [{"size": "1"}, {"size": "1"}, {"size": "80"}, {"size": "480"}]}}}, "dtype": {"type": "DT_FLOAT"}}}, {"name": "FeatureExtractor/MobilenetV3/expanded_conv_13/expand/Conv2D_bn_offset", "op": "Const", "attr": {"value": {"tensor": {"dtype": "DT_FLOAT", "tensorShape": {"dim": [{"size": "480"}]}}}, "dtype": {"type": "DT_FLOAT"}}}, {"name": "FeatureExtractor/MobilenetV3/expanded_conv_13/depthwise/depthwise_weights", "op": "Const", "attr": {"value": {"tensor": {"dtype": "DT_FLOAT", "tensorShape": {"dim": [{"size": "5"}, {"size": "5"}, {"size": "480"}, {"size": "1"}]}}}, "dtype": {"type": "DT_FLOAT"}}}, {"name": "FeatureExtractor/MobilenetV3/expanded_conv_13/depthwise/depthwise_bn_offset", "op": "Const", "attr": {"dtype": {"type": "DT_FLOAT"}, "value": {"tensor": {"dtype": "DT_FLOAT", "tensorShape": {"dim": [{"size": "480"}]}}}}}, {"name": "FeatureExtractor/MobilenetV3/expanded_conv_13/project/Conv2D_weights", "op": "Const", "attr": {"dtype": {"type": "DT_FLOAT"}, "value": {"tensor": {"dtype": "DT_FLOAT", "tensorShape": {"dim": [{"size": "1"}, {"size": "1"}, {"size": "480"}, {"size": "80"}]}}}}}, {"name": "FeatureExtractor/MobilenetV3/expanded_conv_13/project/Conv2D_bn_offset", "op": "Const", "attr": {"dtype": {"type": "DT_FLOAT"}, "value": {"tensor": {"dtype": "DT_FLOAT", "tensorShape": {"dim": [{"size": "80"}]}}}}}, {"name": "FeatureExtractor/MobilenetV3/expanded_conv_14/expand/Conv2D_weights", "op": "Const", "attr": {"dtype": {"type": "DT_FLOAT"}, "value": {"tensor": {"dtype": "DT_FLOAT", "tensorShape": {"dim": [{"size": "1"}, {"size": "1"}, {"size": "80"}, {"size": "480"}]}}}}}, {"name": "FeatureExtractor/MobilenetV3/expanded_conv_14/expand/Conv2D_bn_offset", "op": "Const", "attr": {"dtype": {"type": "DT_FLOAT"}, "value": {"tensor": {"dtype": "DT_FLOAT", "tensorShape": {"dim": [{"size": "480"}]}}}}}, {"name": "FeatureExtractor/MobilenetV3/expanded_conv_14/depthwise/depthwise_weights", "op": "Const", "attr": {"dtype": {"type": "DT_FLOAT"}, "value": {"tensor": {"dtype": "DT_FLOAT", "tensorShape": {"dim": [{"size": "5"}, {"size": "5"}, {"size": "480"}, {"size": "1"}]}}}}}, {"name": "FeatureExtractor/MobilenetV3/expanded_conv_14/depthwise/depthwise_bn_offset", "op": "Const", "attr": {"dtype": {"type": "DT_FLOAT"}, "value": {"tensor": {"dtype": "DT_FLOAT", "tensorShape": {"dim": [{"size": "480"}]}}}}}, {"name": "FeatureExtractor/MobilenetV3/expanded_conv_14/project/Conv2D_weights", "op": "Const", "attr": {"dtype": {"type": "DT_FLOAT"}, "value": {"tensor": {"dtype": "DT_FLOAT", "tensorShape": {"dim": [{"size": "1"}, {"size": "1"}, {"size": "480"}, {"size": "80"}]}}}}}, {"name": "FeatureExtractor/MobilenetV3/expanded_conv_14/project/Conv2D_bn_offset", "op": "Const", "attr": {"value": {"tensor": {"dtype": "DT_FLOAT", "tensorShape": {"dim": [{"size": "80"}]}}}, "dtype": {"type": "DT_FLOAT"}}}, {"name": "FeatureExtractor/MobilenetV3/Conv_1/Conv2D_weights", "op": "Const", "attr": {"dtype": {"type": "DT_FLOAT"}, "value": {"tensor": {"dtype": "DT_FLOAT", "tensorShape": {"dim": [{"size": "1"}, {"size": "1"}, {"size": "80"}, {"size": "480"}]}}}}}, {"name": "FeatureExtractor/MobilenetV3/Conv_1/Conv2D_bn_offset", "op": "Const", "attr": {"value": {"tensor": {"dtype": "DT_FLOAT", "tensorShape": {"dim": [{"size": "480"}]}}}, "dtype": {"type": "DT_FLOAT"}}}, {"name": "BoxPredictor_1/BoxEncodingPredictor_depthwise/depthwise_weights", "op": "Const", "attr": {"dtype": {"type": "DT_FLOAT"}, "value": {"tensor": {"dtype": "DT_FLOAT", "tensorShape": {"dim": [{"size": "3"}, {"size": "3"}, {"size": "480"}, {"size": "1"}]}}}}}, {"name": "BoxPredictor_1/BoxEncodingPredictor_depthwise/depthwise_bn_offset", "op": "Const", "attr": {"value": {"tensor": {"dtype": "DT_FLOAT", "tensorShape": {"dim": [{"size": "480"}]}}}, "dtype": {"type": "DT_FLOAT"}}}, {"name": "BoxPredictor_1/ClassPredictor_depthwise/depthwise_weights", "op": "Const", "attr": {"dtype": {"type": "DT_FLOAT"}, "value": {"tensor": {"dtype": "DT_FLOAT", "tensorShape": {"dim": [{"size": "3"}, {"size": "3"}, {"size": "480"}, {"size": "1"}]}}}}}, {"name": "BoxPredictor_1/ClassPredictor_depthwise/depthwise_bn_offset", "op": "Const", "attr": {"dtype": {"type": "DT_FLOAT"}, "value": {"tensor": {"dtype": "DT_FLOAT", "tensorShape": {"dim": [{"size": "480"}]}}}}}, {"name": "FeatureExtractor/MobilenetV3/layer_17_1_Conv2d_2_1x1_256/Conv2D_weights", "op": "Const", "attr": {"dtype": {"type": "DT_FLOAT"}, "value": {"tensor": {"dtype": "DT_FLOAT", "tensorShape": {"dim": [{"size": "1"}, {"size": "1"}, {"size": "480"}, {"size": "256"}]}}}}}, {"name": "FeatureExtractor/MobilenetV3/layer_17_1_Conv2d_2_1x1_256/Conv2D_bn_offset", "op": "Const", "attr": {"dtype": {"type": "DT_FLOAT"}, "value": {"tensor": {"dtype": "DT_FLOAT", "tensorShape": {"dim": [{"size": "256"}]}}}}}, {"name": "FeatureExtractor/MobilenetV3/layer_17_2_Conv2d_2_3x3_s2_512_depthwise/depthwise_weights", "op": "Const", "attr": {"dtype": {"type": "DT_FLOAT"}, "value": {"tensor": {"dtype": "DT_FLOAT", "tensorShape": {"dim": [{"size": "3"}, {"size": "3"}, {"size": "256"}, {"size": "1"}]}}}}}, {"name": "FeatureExtractor/MobilenetV3/layer_17_2_Conv2d_2_3x3_s2_512_depthwise/depthwise_bn_offset", "op": "Const", "attr": {"dtype": {"type": "DT_FLOAT"}, "value": {"tensor": {"dtype": "DT_FLOAT", "tensorShape": {"dim": [{"size": "256"}]}}}}}, {"name": "FeatureExtractor/MobilenetV3/layer_17_2_Conv2d_2_3x3_s2_512/Conv2D_weights", "op": "Const", "attr": {"dtype": {"type": "DT_FLOAT"}, "value": {"tensor": {"dtype": "DT_FLOAT", "tensorShape": {"dim": [{"size": "1"}, {"size": "1"}, {"size": "256"}, {"size": "512"}]}}}}}, {"name": "FeatureExtractor/MobilenetV3/layer_17_2_Conv2d_2_3x3_s2_512/Conv2D_bn_offset", "op": "Const", "attr": {"dtype": {"type": "DT_FLOAT"}, "value": {"tensor": {"dtype": "DT_FLOAT", "tensorShape": {"dim": [{"size": "512"}]}}}}}, {"name": "BoxPredictor_2/BoxEncodingPredictor_depthwise/depthwise_weights", "op": "Const", "attr": {"dtype": {"type": "DT_FLOAT"}, "value": {"tensor": {"dtype": "DT_FLOAT", "tensorShape": {"dim": [{"size": "3"}, {"size": "3"}, {"size": "512"}, {"size": "1"}]}}}}}, {"name": "BoxPredictor_2/BoxEncodingPredictor_depthwise/depthwise_bn_offset", "op": "Const", "attr": {"value": {"tensor": {"dtype": "DT_FLOAT", "tensorShape": {"dim": [{"size": "512"}]}}}, "dtype": {"type": "DT_FLOAT"}}}, {"name": "BoxPredictor_2/ClassPredictor_depthwise/depthwise_weights", "op": "Const", "attr": {"dtype": {"type": "DT_FLOAT"}, "value": {"tensor": {"dtype": "DT_FLOAT", "tensorShape": {"dim": [{"size": "3"}, {"size": "3"}, {"size": "512"}, {"size": "1"}]}}}}}, {"name": "BoxPredictor_2/ClassPredictor_depthwise/depthwise_bn_offset", "op": "Const", "attr": {"value": {"tensor": {"dtype": "DT_FLOAT", "tensorShape": {"dim": [{"size": "512"}]}}}, "dtype": {"type": "DT_FLOAT"}}}, {"name": "FeatureExtractor/MobilenetV3/layer_17_1_Conv2d_3_1x1_128/Conv2D_weights", "op": "Const", "attr": {"dtype": {"type": "DT_FLOAT"}, "value": {"tensor": {"dtype": "DT_FLOAT", "tensorShape": {"dim": [{"size": "1"}, {"size": "1"}, {"size": "512"}, {"size": "128"}]}}}}}, {"name": "FeatureExtractor/MobilenetV3/layer_17_1_Conv2d_3_1x1_128/Conv2D_bn_offset", "op": "Const", "attr": {"value": {"tensor": {"dtype": "DT_FLOAT", "tensorShape": {"dim": [{"size": "128"}]}}}, "dtype": {"type": "DT_FLOAT"}}}, {"name": "FeatureExtractor/MobilenetV3/layer_17_2_Conv2d_3_3x3_s2_256_depthwise/depthwise_weights", "op": "Const", "attr": {"dtype": {"type": "DT_FLOAT"}, "value": {"tensor": {"dtype": "DT_FLOAT", "tensorShape": {"dim": [{"size": "3"}, {"size": "3"}, {"size": "128"}, {"size": "1"}]}}}}}, {"name": "FeatureExtractor/MobilenetV3/layer_17_2_Conv2d_3_3x3_s2_256_depthwise/depthwise_bn_offset", "op": "Const", "attr": {"dtype": {"type": "DT_FLOAT"}, "value": {"tensor": {"dtype": "DT_FLOAT", "tensorShape": {"dim": [{"size": "128"}]}}}}}, {"name": "FeatureExtractor/MobilenetV3/layer_17_2_Conv2d_3_3x3_s2_256/Conv2D_weights", "op": "Const", "attr": {"value": {"tensor": {"dtype": "DT_FLOAT", "tensorShape": {"dim": [{"size": "1"}, {"size": "1"}, {"size": "128"}, {"size": "256"}]}}}, "dtype": {"type": "DT_FLOAT"}}}, {"name": "FeatureExtractor/MobilenetV3/layer_17_2_Conv2d_3_3x3_s2_256/Conv2D_bn_offset", "op": "Const", "attr": {"value": {"tensor": {"dtype": "DT_FLOAT", "tensorShape": {"dim": [{"size": "256"}]}}}, "dtype": {"type": "DT_FLOAT"}}}, {"name": "BoxPredictor_3/BoxEncodingPredictor_depthwise/depthwise_weights", "op": "Const", "attr": {"value": {"tensor": {"dtype": "DT_FLOAT", "tensorShape": {"dim": [{"size": "3"}, {"size": "3"}, {"size": "256"}, {"size": "1"}]}}}, "dtype": {"type": "DT_FLOAT"}}}, {"name": "BoxPredictor_3/BoxEncodingPredictor_depthwise/depthwise_bn_offset", "op": "Const", "attr": {"dtype": {"type": "DT_FLOAT"}, "value": {"tensor": {"dtype": "DT_FLOAT", "tensorShape": {"dim": [{"size": "256"}]}}}}}, {"name": "BoxPredictor_3/ClassPredictor_depthwise/depthwise_weights", "op": "Const", "attr": {"dtype": {"type": "DT_FLOAT"}, "value": {"tensor": {"dtype": "DT_FLOAT", "tensorShape": {"dim": [{"size": "3"}, {"size": "3"}, {"size": "256"}, {"size": "1"}]}}}}}, {"name": "BoxPredictor_3/ClassPredictor_depthwise/depthwise_bn_offset", "op": "Const", "attr": {"value": {"tensor": {"dtype": "DT_FLOAT", "tensorShape": {"dim": [{"size": "256"}]}}}, "dtype": {"type": "DT_FLOAT"}}}, {"name": "FeatureExtractor/MobilenetV3/layer_17_1_Conv2d_4_1x1_128/Conv2D_weights", "op": "Const", "attr": {"dtype": {"type": "DT_FLOAT"}, "value": {"tensor": {"dtype": "DT_FLOAT", "tensorShape": {"dim": [{"size": "1"}, {"size": "1"}, {"size": "256"}, {"size": "128"}]}}}}}, {"name": "FeatureExtractor/MobilenetV3/layer_17_1_Conv2d_4_1x1_128/Conv2D_bn_offset", "op": "Const", "attr": {"dtype": {"type": "DT_FLOAT"}, "value": {"tensor": {"dtype": "DT_FLOAT", "tensorShape": {"dim": [{"size": "128"}]}}}}}, {"name": "FeatureExtractor/MobilenetV3/layer_17_2_Conv2d_4_3x3_s2_256_depthwise/depthwise_weights", "op": "Const", "attr": {"dtype": {"type": "DT_FLOAT"}, "value": {"tensor": {"dtype": "DT_FLOAT", "tensorShape": {"dim": [{"size": "3"}, {"size": "3"}, {"size": "128"}, {"size": "1"}]}}}}}, {"name": "FeatureExtractor/MobilenetV3/layer_17_2_Conv2d_4_3x3_s2_256_depthwise/depthwise_bn_offset", "op": "Const", "attr": {"dtype": {"type": "DT_FLOAT"}, "value": {"tensor": {"dtype": "DT_FLOAT", "tensorShape": {"dim": [{"size": "128"}]}}}}}, {"name": "FeatureExtractor/MobilenetV3/layer_17_2_Conv2d_4_3x3_s2_256/Conv2D_weights", "op": "Const", "attr": {"dtype": {"type": "DT_FLOAT"}, "value": {"tensor": {"dtype": "DT_FLOAT", "tensorShape": {"dim": [{"size": "1"}, {"size": "1"}, {"size": "128"}, {"size": "256"}]}}}}}, {"name": "FeatureExtractor/MobilenetV3/layer_17_2_Conv2d_4_3x3_s2_256/Conv2D_bn_offset", "op": "Const", "attr": {"value": {"tensor": {"dtype": "DT_FLOAT", "tensorShape": {"dim": [{"size": "256"}]}}}, "dtype": {"type": "DT_FLOAT"}}}, {"name": "BoxPredictor_4/BoxEncodingPredictor_depthwise/depthwise_weights", "op": "Const", "attr": {"dtype": {"type": "DT_FLOAT"}, "value": {"tensor": {"dtype": "DT_FLOAT", "tensorShape": {"dim": [{"size": "3"}, {"size": "3"}, {"size": "256"}, {"size": "1"}]}}}}}, {"name": "BoxPredictor_4/BoxEncodingPredictor_depthwise/depthwise_bn_offset", "op": "Const", "attr": {"dtype": {"type": "DT_FLOAT"}, "value": {"tensor": {"dtype": "DT_FLOAT", "tensorShape": {"dim": [{"size": "256"}]}}}}}, {"name": "BoxPredictor_4/ClassPredictor_depthwise/depthwise_weights", "op": "Const", "attr": {"value": {"tensor": {"dtype": "DT_FLOAT", "tensorShape": {"dim": [{"size": "3"}, {"size": "3"}, {"size": "256"}, {"size": "1"}]}}}, "dtype": {"type": "DT_FLOAT"}}}, {"name": "BoxPredictor_4/ClassPredictor_depthwise/depthwise_bn_offset", "op": "Const", "attr": {"dtype": {"type": "DT_FLOAT"}, "value": {"tensor": {"dtype": "DT_FLOAT", "tensorShape": {"dim": [{"size": "256"}]}}}}}, {"name": "FeatureExtractor/MobilenetV3/layer_17_1_Conv2d_5_1x1_64/Conv2D_weights", "op": "Const", "attr": {"value": {"tensor": {"dtype": "DT_FLOAT", "tensorShape": {"dim": [{"size": "1"}, {"size": "1"}, {"size": "256"}, {"size": "64"}]}}}, "dtype": {"type": "DT_FLOAT"}}}, {"name": "FeatureExtractor/MobilenetV3/layer_17_1_Conv2d_5_1x1_64/Conv2D_bn_offset", "op": "Const", "attr": {"dtype": {"type": "DT_FLOAT"}, "value": {"tensor": {"dtype": "DT_FLOAT", "tensorShape": {"dim": [{"size": "64"}]}}}}}, {"name": "FeatureExtractor/MobilenetV3/layer_17_2_Conv2d_5_3x3_s2_128_depthwise/depthwise_weights", "op": "Const", "attr": {"dtype": {"type": "DT_FLOAT"}, "value": {"tensor": {"dtype": "DT_FLOAT", "tensorShape": {"dim": [{"size": "3"}, {"size": "3"}, {"size": "64"}, {"size": "1"}]}}}}}, {"name": "FeatureExtractor/MobilenetV3/layer_17_2_Conv2d_5_3x3_s2_128_depthwise/depthwise_bn_offset", "op": "Const", "attr": {"value": {"tensor": {"dtype": "DT_FLOAT", "tensorShape": {"dim": [{"size": "64"}]}}}, "dtype": {"type": "DT_FLOAT"}}}, {"name": "FeatureExtractor/MobilenetV3/layer_17_2_Conv2d_5_3x3_s2_128/Conv2D_weights", "op": "Const", "attr": {"dtype": {"type": "DT_FLOAT"}, "value": {"tensor": {"dtype": "DT_FLOAT", "tensorShape": {"dim": [{"size": "1"}, {"size": "1"}, {"size": "64"}, {"size": "128"}]}}}}}, {"name": "FeatureExtractor/MobilenetV3/layer_17_2_Conv2d_5_3x3_s2_128/Conv2D_bn_offset", "op": "Const", "attr": {"dtype": {"type": "DT_FLOAT"}, "value": {"tensor": {"dtype": "DT_FLOAT", "tensorShape": {"dim": [{"size": "128"}]}}}}}, {"name": "BoxPredictor_5/BoxEncodingPredictor_depthwise/depthwise_weights", "op": "Const", "attr": {"value": {"tensor": {"dtype": "DT_FLOAT", "tensorShape": {"dim": [{"size": "3"}, {"size": "3"}, {"size": "128"}, {"size": "1"}]}}}, "dtype": {"type": "DT_FLOAT"}}}, {"name": "BoxPredictor_5/BoxEncodingPredictor_depthwise/depthwise_bn_offset", "op": "Const", "attr": {"dtype": {"type": "DT_FLOAT"}, "value": {"tensor": {"dtype": "DT_FLOAT", "tensorShape": {"dim": [{"size": "128"}]}}}}}, {"name": "BoxPredictor_5/ClassPredictor_depthwise/depthwise_weights", "op": "Const", "attr": {"dtype": {"type": "DT_FLOAT"}, "value": {"tensor": {"dtype": "DT_FLOAT", "tensorShape": {"dim": [{"size": "3"}, {"size": "3"}, {"size": "128"}, {"size": "1"}]}}}}}, {"name": "BoxPredictor_5/ClassPredictor_depthwise/depthwise_bn_offset", "op": "Const", "attr": {"dtype": {"type": "DT_FLOAT"}, "value": {"tensor": {"dtype": "DT_FLOAT", "tensorShape": {"dim": [{"size": "128"}]}}}}}, {"name": "Postprocessor/BatchMultiClassNonMaxSuppression/map/while/Enter_1", "op": "Enter", "input": ["Postprocessor/BatchMultiClassNonMaxSuppression/map/Const"], "attr": {"frame_name": {"s": "UG9zdHByb2Nlc3Nvci9CYXRjaE11bHRpQ2xhc3NOb25NYXhTdXBwcmVzc2lvbi9tYXAvd2hpbGUvd2hpbGVfY29udGV4dA=="}, "parallel_iterations": {"i": "32"}, "T": {"type": "DT_INT32"}, "is_constant": {"b": false}}}, {"name": "Postprocessor/BatchMultiClassNonMaxSuppression/map/while/Enter", "op": "Enter", "input": ["Postprocessor/BatchMultiClassNonMaxSuppression/map/while/iteration_counter"], "attr": {"parallel_iterations": {"i": "32"}, "T": {"type": "DT_INT32"}, "is_constant": {"b": false}, "frame_name": {"s": "UG9zdHByb2Nlc3Nvci9CYXRjaE11bHRpQ2xhc3NOb25NYXhTdXBwcmVzc2lvbi9tYXAvd2hpbGUvd2hpbGVfY29udGV4dA=="}}}, {"name": "Preprocessor/map/while/Enter_1", "op": "Enter", "input": ["Preprocessor/map/Const"], "attr": {"parallel_iterations": {"i": "32"}, "is_constant": {"b": false}, "frame_name": {"s": "UHJlcHJvY2Vzc29yL21hcC93aGlsZS93aGlsZV9jb250ZXh0"}, "T": {"type": "DT_INT32"}}}, {"name": "Preprocessor/map/while/Enter", "op": "Enter", "input": ["Preprocessor/map/while/iteration_counter"], "attr": {"frame_name": {"s": "UHJlcHJvY2Vzc29yL21hcC93aGlsZS93aGlsZV9jb250ZXh0"}, "T": {"type": "DT_INT32"}, "parallel_iterations": {"i": "32"}, "is_constant": {"b": false}}}, {"name": "Cast", "op": "Cast", "input": ["image_tensor"], "attr": {"DstT": {"type": "DT_FLOAT"}, "Truncate": {"b": false}, "SrcT": {"type": "DT_UINT8"}}}, {"name": "Postprocessor/BatchMultiClassNonMaxSuppression/map/while/Merge_1", "op": "Merge", "input": ["Postprocessor/BatchMultiClassNonMaxSuppression/map/while/Enter_1", "Postprocessor/BatchMultiClassNonMaxSuppression/map/while/NextIteration_1"], "attr": {"N": {"i": "2"}, "T": {"type": "DT_INT32"}}}, {"name": "Postprocessor/BatchMultiClassNonMaxSuppression/map/while/Merge", "op": "Merge", "input": ["Postprocessor/BatchMultiClassNonMaxSuppression/map/while/Enter", "Postprocessor/BatchMultiClassNonMaxSuppression/map/while/NextIteration"], "attr": {"N": {"i": "2"}, "T": {"type": "DT_INT32"}}}, {"name": "Preprocessor/map/while/Merge_1", "op": "Merge", "input": ["Preprocessor/map/while/Enter_1", "Preprocessor/map/while/NextIteration_1"], "attr": {"T": {"type": "DT_INT32"}, "N": {"i": "2"}}}, {"name": "Preprocessor/map/while/Merge", "op": "Merge", "input": ["Preprocessor/map/while/Enter", "Preprocessor/map/while/NextIteration"], "attr": {"N": {"i": "2"}, "T": {"type": "DT_INT32"}}}, {"name": "Preprocessor/mul", "op": "Mul", "input": ["Preprocessor/mul/x", "Cast"], "attr": {"T": {"type": "DT_FLOAT"}}}, {"name": "Preprocessor/sub", "op": "Sub", "input": ["Preprocessor/mul", "Preprocessor/sub/y"], "attr": {"T": {"type": "DT_FLOAT"}}}, {"name": "Preprocessor/map/TensorArrayUnstack/Shape", "op": "Shape", "input": ["Preprocessor/sub"], "attr": {"T": {"type": "DT_FLOAT"}, "out_type": {"type": "DT_INT32"}}}, {"name": "Preprocessor/map/Shape", "op": "Shape", "input": ["Preprocessor/sub"], "attr": {"out_type": {"type": "DT_INT32"}, "T": {"type": "DT_FLOAT"}}}, {"name": "Preprocessor/map/TensorArrayUnstack/strided_slice", "op": "StridedSlice", "input": ["Preprocessor/map/TensorArrayUnstack/Shape", "Preprocessor/map/TensorArrayUnstack/strided_slice/stack", "Preprocessor/map/TensorArrayUnstack/strided_slice/stack_1", "Preprocessor/map/TensorArrayUnstack/strided_slice/stack_2"], "attr": {"end_mask": {"i": "0"}, "Index": {"type": "DT_INT32"}, "ellipsis_mask": {"i": "0"}, "begin_mask": {"i": "0"}, "new_axis_mask": {"i": "0"}, "T": {"type": "DT_INT32"}, "shrink_axis_mask": {"i": "1"}}}, {"name": "Preprocessor/map/strided_slice", "op": "StridedSlice", "input": ["Preprocessor/map/Shape", "Preprocessor/map/strided_slice/stack", "Preprocessor/map/strided_slice/stack_1", "Preprocessor/map/strided_slice/stack_2"], "attr": {"shrink_axis_mask": {"i": "1"}, "T": {"type": "DT_INT32"}, "end_mask": {"i": "0"}, "Index": {"type": "DT_INT32"}, "new_axis_mask": {"i": "0"}, "ellipsis_mask": {"i": "0"}, "begin_mask": {"i": "0"}}}, {"name": "Preprocessor/map/TensorArrayUnstack/range", "op": "Range", "input": ["Preprocessor/map/TensorArrayUnstack/range/start", "Preprocessor/map/TensorArrayUnstack/strided_slice", "Preprocessor/map/TensorArrayUnstack/range/delta"], "attr": {"Tidx": {"type": "DT_INT32"}}}, {"name": "Preprocessor/map/TensorArray_2", "op": "TensorArrayV3", "input": ["Preprocessor/map/strided_slice"], "attr": {"clear_after_read": {"b": true}, "tensor_array_name": {"s": ""}, "identical_element_shapes": {"b": true}, "dtype": {"type": "DT_INT32"}, "dynamic_size": {"b": false}, "element_shape": {"shape": {"unknownRank": true}}}}, {"name": "Preprocessor/map/TensorArray_1", "op": "TensorArrayV3", "input": ["Preprocessor/map/strided_slice"], "attr": {"clear_after_read": {"b": true}, "dtype": {"type": "DT_FLOAT"}, "dynamic_size": {"b": false}, "tensor_array_name": {"s": ""}, "element_shape": {"shape": {"unknownRank": true}}, "identical_element_shapes": {"b": true}}}, {"name": "Preprocessor/map/TensorArray", "op": "TensorArrayV3", "input": ["Preprocessor/map/strided_slice"], "attr": {"identical_element_shapes": {"b": true}, "clear_after_read": {"b": true}, "tensor_array_name": {"s": ""}, "dynamic_size": {"b": false}, "dtype": {"type": "DT_FLOAT"}, "element_shape": {"shape": {"unknownRank": true}}}}, {"name": "Preprocessor/map/while/Less/Enter", "op": "Enter", "input": ["Preprocessor/map/strided_slice"], "attr": {"frame_name": {"s": "UHJlcHJvY2Vzc29yL21hcC93aGlsZS93aGlsZV9jb250ZXh0"}, "parallel_iterations": {"i": "32"}, "T": {"type": "DT_INT32"}, "is_constant": {"b": true}}}, {"name": "Preprocessor/map/while/TensorArrayWrite_1/TensorArrayWriteV3/Enter", "op": "Enter", "input": ["Preprocessor/map/TensorArray_2"], "attr": {"parallel_iterations": {"i": "32"}, "frame_name": {"s": "UHJlcHJvY2Vzc29yL21hcC93aGlsZS93aGlsZV9jb250ZXh0"}, "is_constant": {"b": true}, "T": {"type": "DT_RESOURCE"}}}, {"name": "Preprocessor/map/while/Enter_3", "op": "Enter", "input": ["Preprocessor/map/TensorArray_2:1"], "attr": {"frame_name": {"s": "UHJlcHJvY2Vzc29yL21hcC93aGlsZS93aGlsZV9jb250ZXh0"}, "T": {"type": "DT_FLOAT"}, "is_constant": {"b": false}, "parallel_iterations": {"i": "32"}}}, {"name": "Preprocessor/map/while/TensorArrayWrite/TensorArrayWriteV3/Enter", "op": "Enter", "input": ["Preprocessor/map/TensorArray_1"], "attr": {"parallel_iterations": {"i": "32"}, "frame_name": {"s": "UHJlcHJvY2Vzc29yL21hcC93aGlsZS93aGlsZV9jb250ZXh0"}, "T": {"type": "DT_RESOURCE"}, "is_constant": {"b": true}}}, {"name": "Preprocessor/map/while/Enter_2", "op": "Enter", "input": ["Preprocessor/map/TensorArray_1:1"], "attr": {"is_constant": {"b": false}, "frame_name": {"s": "UHJlcHJvY2Vzc29yL21hcC93aGlsZS93aGlsZV9jb250ZXh0"}, "T": {"type": "DT_FLOAT"}, "parallel_iterations": {"i": "32"}}}, {"name": "Preprocessor/map/while/TensorArrayReadV3/Enter", "op": "Enter", "input": ["Preprocessor/map/TensorArray"], "attr": {"parallel_iterations": {"i": "32"}, "T": {"type": "DT_RESOURCE"}, "is_constant": {"b": true}, "frame_name": {"s": "UHJlcHJvY2Vzc29yL21hcC93aGlsZS93aGlsZV9jb250ZXh0"}}}, {"name": "Preprocessor/map/TensorArrayUnstack/TensorArrayScatter/TensorArrayScatterV3", "op": "TensorArrayScatterV3", "input": ["Preprocessor/map/TensorArray", "Preprocessor/map/TensorArrayUnstack/range", "Preprocessor/sub", "Preprocessor/map/TensorArray:1"], "attr": {"T": {"type": "DT_FLOAT"}}}, {"name": "Preprocessor/map/while/Less", "op": "Less", "input": ["Preprocessor/map/while/Merge", "Preprocessor/map/while/Less/Enter"], "attr": {"T": {"type": "DT_INT32"}}}, {"name": "Preprocessor/map/while/Less_1", "op": "Less", "input": ["Preprocessor/map/while/Merge_1", "Preprocessor/map/while/Less/Enter"], "attr": {"T": {"type": "DT_INT32"}}}, {"name": "Preprocessor/map/while/Merge_3", "op": "Merge", "input": ["Preprocessor/map/while/Enter_3", "Preprocessor/map/while/NextIteration_3"], "attr": {"T": {"type": "DT_FLOAT"}, "N": {"i": "2"}}}, {"name": "Preprocessor/map/while/Merge_2", "op": "Merge", "input": ["Preprocessor/map/while/Enter_2", "Preprocessor/map/while/NextIteration_2"], "attr": {"T": {"type": "DT_FLOAT"}, "N": {"i": "2"}}}, {"name": "Preprocessor/map/while/TensorArrayReadV3/Enter_1", "op": "Enter", "input": ["Preprocessor/map/TensorArrayUnstack/TensorArrayScatter/TensorArrayScatterV3"], "attr": {"T": {"type": "DT_FLOAT"}, "parallel_iterations": {"i": "32"}, "frame_name": {"s": "UHJlcHJvY2Vzc29yL21hcC93aGlsZS93aGlsZV9jb250ZXh0"}, "is_constant": {"b": true}}}, {"name": "Preprocessor/map/while/LogicalAnd", "op": "LogicalAnd", "input": ["Preprocessor/map/while/Less", "Preprocessor/map/while/Less_1"]}, {"name": "Preprocessor/map/while/LoopCond", "op": "LoopCond", "input": ["Preprocessor/map/while/LogicalAnd"]}, {"name": "Preprocessor/map/while/Switch_3", "op": "Switch", "input": ["Preprocessor/map/while/Merge_3", "Preprocessor/map/while/LoopCond"], "attr": {"T": {"type": "DT_FLOAT"}}}, {"name": "Preprocessor/map/while/Switch_1", "op": "Switch", "input": ["Preprocessor/map/while/Merge_1", "Preprocessor/map/while/LoopCond"], "attr": {"T": {"type": "DT_INT32"}}}, {"name": "Preprocessor/map/while/Switch", "op": "Switch", "input": ["Preprocessor/map/while/Merge", "Preprocessor/map/while/LoopCond"], "attr": {"T": {"type": "DT_INT32"}}}, {"name": "Preprocessor/map/while/Switch_2", "op": "Switch", "input": ["Preprocessor/map/while/Merge_2", "Preprocessor/map/while/LoopCond"], "attr": {"T": {"type": "DT_FLOAT"}}}, {"name": "Preprocessor/map/while/Exit_3", "op": "Exit", "input": ["Preprocessor/map/while/Switch_3"], "attr": {"T": {"type": "DT_FLOAT"}}}, {"name": "Preprocessor/map/while/TensorArrayReadV3", "op": "TensorArrayReadV3", "input": ["Preprocessor/map/while/TensorArrayReadV3/Enter", "Preprocessor/map/while/Switch_1:1", "Preprocessor/map/while/TensorArrayReadV3/Enter_1"], "attr": {"dtype": {"type": "DT_FLOAT"}}}, {"name": "Preprocessor/map/while/Identity", "op": "Identity", "input": ["Preprocessor/map/while/Switch:1"], "attr": {"T": {"type": "DT_INT32"}}}, {"name": "Preprocessor/map/while/Exit_2", "op": "Exit", "input": ["Preprocessor/map/while/Switch_2"], "attr": {"T": {"type": "DT_FLOAT"}}}, {"name": "Preprocessor/map/TensorArrayStack_1/TensorArraySizeV3", "op": "TensorArraySizeV3", "input": ["Preprocessor/map/TensorArray_2", "Preprocessor/map/while/Exit_3"]}, {"name": "Preprocessor/map/while/ResizeImage/stack_1", "op": "Const", "input": ["^Preprocessor/map/while/Identity"], "attr": {"value": {"tensor": {"dtype": "DT_INT32", "tensorShape": {"dim": [{"size": "3"}]}}}, "dtype": {"type": "DT_INT32"}}}, {"name": "Preprocessor/map/while/ResizeImage/resize/ExpandDims/dim", "op": "Const", "input": ["^Preprocessor/map/while/Identity"], "attr": {"dtype": {"type": "DT_INT32"}, "value": {"tensor": {"dtype": "DT_INT32", "tensorShape": {}}}}}, {"name": "Preprocessor/map/while/ResizeImage/stack", "op": "Const", "input": ["^Preprocessor/map/while/Identity"], "attr": {"value": {"tensor": {"dtype": "DT_INT32", "tensorShape": {"dim": [{"size": "2"}]}}}, "dtype": {"type": "DT_INT32"}}}, {"name": "Preprocessor/map/while/add/y", "op": "Const", "input": ["^Preprocessor/map/while/Identity"], "attr": {"value": {"tensor": {"dtype": "DT_INT32", "tensorShape": {}}}, "dtype": {"type": "DT_INT32"}}}, {"name": "Preprocessor/map/while/add_1/y", "op": "Const", "input": ["^Preprocessor/map/while/Identity"], "attr": {"value": {"tensor": {"dtype": "DT_INT32", "tensorShape": {}}}, "dtype": {"type": "DT_INT32"}}}, {"name": "Preprocessor/map/TensorArrayStack/TensorArraySizeV3", "op": "TensorArraySizeV3", "input": ["Preprocessor/map/TensorArray_1", "Preprocessor/map/while/Exit_2"]}, {"name": "Preprocessor/map/TensorArrayStack_1/range", "op": "Range", "input": ["Preprocessor/map/TensorArrayStack_1/range/start", "Preprocessor/map/TensorArrayStack_1/TensorArraySizeV3", "Preprocessor/map/TensorArrayStack_1/range/delta"], "attr": {"Tidx": {"type": "DT_INT32"}}}, {"name": "Preprocessor/map/while/TensorArrayWrite_1/TensorArrayWriteV3", "op": "TensorArrayWriteV3", "input": ["Preprocessor/map/while/TensorArrayWrite_1/TensorArrayWriteV3/Enter", "Preprocessor/map/while/Switch_1:1", "Preprocessor/map/while/ResizeImage/stack_1", "Preprocessor/map/while/Switch_3:1"], "attr": {"T": {"type": "DT_INT32"}}}, {"name": "Preprocessor/map/while/ResizeImage/resize/ExpandDims", "op": "ExpandDims", "input": ["Preprocessor/map/while/TensorArrayReadV3", "Preprocessor/map/while/ResizeImage/resize/ExpandDims/dim"], "attr": {"Tdim": {"type": "DT_INT32"}, "T": {"type": "DT_FLOAT"}}}, {"name": "Preprocessor/map/while/add", "op": "Add", "input": ["Preprocessor/map/while/Identity", "Preprocessor/map/while/add/y"], "attr": {"T": {"type": "DT_INT32"}}}, {"name": "Preprocessor/map/while/add_1", "op": "Add", "input": ["Preprocessor/map/while/Switch_1:1", "Preprocessor/map/while/add_1/y"], "attr": {"T": {"type": "DT_INT32"}}}, {"name": "Preprocessor/map/TensorArrayStack/range", "op": "Range", "input": ["Preprocessor/map/TensorArrayStack/range/start", "Preprocessor/map/TensorArrayStack/TensorArraySizeV3", "Preprocessor/map/TensorArrayStack/range/delta"], "attr": {"Tidx": {"type": "DT_INT32"}}}, {"name": "Preprocessor/map/TensorArrayStack_1/TensorArrayGatherV3", "op": "TensorArrayGatherV3", "input": ["Preprocessor/map/TensorArray_2", "Preprocessor/map/TensorArrayStack_1/range", "Preprocessor/map/while/Exit_3"], "attr": {"element_shape": {"shape": {"dim": [{"size": "3"}]}}, "dtype": {"type": "DT_INT32"}}}, {"name": "Preprocessor/map/while/NextIteration_3", "op": "NextIteration", "input": ["Preprocessor/map/while/TensorArrayWrite_1/TensorArrayWriteV3"], "attr": {"T": {"type": "DT_FLOAT"}}}, {"name": "Preprocessor/map/while/ResizeImage/resize/ResizeBilinear", "op": "ResizeBilinear", "input": ["Preprocessor/map/while/ResizeImage/resize/ExpandDims", "Preprocessor/map/while/ResizeImage/stack"], "attr": {"align_corners": {"b": false}, "T": {"type": "DT_FLOAT"}, "half_pixel_centers": {"b": false}}}, {"name": "Preprocessor/map/while/NextIteration", "op": "NextIteration", "input": ["Preprocessor/map/while/add"], "attr": {"T": {"type": "DT_INT32"}}}, {"name": "Preprocessor/map/while/NextIteration_1", "op": "NextIteration", "input": ["Preprocessor/map/while/add_1"], "attr": {"T": {"type": "DT_INT32"}}}, {"name": "Preprocessor/map/TensorArrayStack/TensorArrayGatherV3", "op": "TensorArrayGatherV3", "input": ["Preprocessor/map/TensorArray_1", "Preprocessor/map/TensorArrayStack/range", "Preprocessor/map/while/Exit_2"], "attr": {"element_shape": {"shape": {"dim": [{"size": "100"}, {"size": "100"}, {"size": "3"}]}}, "dtype": {"type": "DT_FLOAT"}}}, {"name": "Postprocessor/Cast_1", "op": "Cast", "input": ["Preprocessor/map/TensorArrayStack_1/TensorArrayGatherV3"], "attr": {"DstT": {"type": "DT_FLOAT"}, "Truncate": {"b": false}, "SrcT": {"type": "DT_INT32"}}}, {"name": "Preprocessor/map/while/ResizeImage/resize/Squeeze", "op": "Squeeze", "input": ["Preprocessor/map/while/ResizeImage/resize/ResizeBilinear"], "attr": {"squeeze_dims": {"list": {"i": ["0"]}}, "T": {"type": "DT_FLOAT"}}}, {"name": "FeatureExtractor/MobilenetV3/Conv/BatchNorm/FusedBatchNorm", "op": "_FusedConv2D", "input": ["Preprocessor/map/TensorArrayStack/TensorArrayGatherV3", "FeatureExtractor/MobilenetV3/Conv/Conv2D_weights", "FeatureExtractor/MobilenetV3/Conv/Conv2D_bn_offset"], "device": "/device:CPU:0", "attr": {"dilations": {"list": {"i": ["1", "1", "1", "1"]}}, "fused_ops": {"list": {"s": ["Qmlhc0FkZA=="]}}, "padding": {"s": "U0FNRQ=="}, "use_cudnn_on_gpu": {"b": true}, "strides": {"list": {"i": ["1", "2", "2", "1"]}}, "num_args": {"i": "1"}, "explicit_paddings": {"list": {}}, "epsilon": {"f": 0.0}, "data_format": {"s": "TkhXQw=="}, "T": {"type": "DT_FLOAT"}}}, {"name": "Postprocessor/unstack", "op": "Unpack", "input": ["Postprocessor/Cast_1"], "attr": {"axis": {"i": "1"}, "T": {"type": "DT_FLOAT"}, "num": {"i": "3"}}}, {"name": "Preprocessor/map/while/TensorArrayWrite/TensorArrayWriteV3", "op": "TensorArrayWriteV3", "input": ["Preprocessor/map/while/TensorArrayWrite/TensorArrayWriteV3/Enter", "Preprocessor/map/while/Switch_1:1", "Preprocessor/map/while/ResizeImage/resize/Squeeze", "Preprocessor/map/while/Switch_2:1"], "attr": {"T": {"type": "DT_FLOAT"}}}, {"name": "FeatureExtractor/MobilenetV3/Conv/hard_swish/mul", "op": "Mul", "input": ["FeatureExtractor/MobilenetV3/Conv/hard_swish/mul_1/y", "FeatureExtractor/MobilenetV3/Conv/BatchNorm/FusedBatchNorm"], "attr": {"_grappler_ArithmeticOptimizer_MinimizeBroadcasts": {"b": true}, "T": {"type": "DT_FLOAT"}}}, {"name": "FeatureExtractor/MobilenetV3/Conv/hard_swish/add", "op": "Add", "input": ["FeatureExtractor/MobilenetV3/Conv/BatchNorm/FusedBatchNorm", "FeatureExtractor/MobilenetV3/Conv/hard_swish/add/y"], "attr": {"T": {"type": "DT_FLOAT"}}}, {"name": "Postprocessor/zeros_like", "op": "ZerosLike", "input": ["Postprocessor/unstack"], "attr": {"T": {"type": "DT_FLOAT"}}}, {"name": "Postprocessor/truediv", "op": "Mul", "input": ["Postprocessor/unstack", "ConstantFolding/Postprocessor/truediv_recip"], "attr": {"T": {"type": "DT_FLOAT"}}}, {"name": "Postprocessor/zeros_like_1", "op": "ZerosLike", "input": ["Postprocessor/unstack:1"], "attr": {"T": {"type": "DT_FLOAT"}}}, {"name": "Postprocessor/truediv_1", "op": "Mul", "input": ["Postprocessor/unstack:1", "ConstantFolding/Postprocessor/truediv_1_recip"], "attr": {"T": {"type": "DT_FLOAT"}}}, {"name": "Preprocessor/map/while/NextIteration_2", "op": "NextIteration", "input": ["Preprocessor/map/while/TensorArrayWrite/TensorArrayWriteV3"], "attr": {"T": {"type": "DT_FLOAT"}}}, {"name": "FeatureExtractor/MobilenetV3/Conv/hard_swish/Relu6", "op": "Relu6", "input": ["FeatureExtractor/MobilenetV3/Conv/hard_swish/add"], "attr": {"T": {"type": "DT_FLOAT"}}}, {"name": "Postprocessor/stack_1", "op": "Pack", "input": ["Postprocessor/zeros_like", "Postprocessor/zeros_like_1", "Postprocessor/truediv", "Postprocessor/truediv_1"], "attr": {"axis": {"i": "1"}, "T": {"type": "DT_FLOAT"}, "N": {"i": "4"}}}, {"name": "FeatureExtractor/MobilenetV3/Conv/hard_swish/mul_1", "op": "Mul", "input": ["FeatureExtractor/MobilenetV3/Conv/hard_swish/mul", "FeatureExtractor/MobilenetV3/Conv/hard_swish/Relu6"], "attr": {"T": {"type": "DT_FLOAT"}, "_grappler_ArithmeticOptimizer_MinimizeBroadcasts": {"b": true}}}, {"name": "Postprocessor/BatchMultiClassNonMaxSuppression/map/TensorArrayUnstack_3/Shape", "op": "Shape", "input": ["Postprocessor/stack_1"], "attr": {"out_type": {"type": "DT_INT32"}, "T": {"type": "DT_FLOAT"}}}, {"name": "FeatureExtractor/MobilenetV3/expanded_conv/depthwise/depthwise", "op": "FusedDepthwiseConv2dNative", "input": ["FeatureExtractor/MobilenetV3/Conv/hard_swish/mul_1", "FeatureExtractor/MobilenetV3/expanded_conv/depthwise/depthwise_weights", "FeatureExtractor/MobilenetV3/expanded_conv/depthwise/depthwise_bn_offset"], "attr": {"strides": {"list": {"i": ["1", "1", "1", "1"]}}, "data_format": {"s": "TkhXQw=="}, "T": {"type": "DT_FLOAT"}, "padding": {"s": "U0FNRQ=="}, "dilations": {"list": {"i": ["1", "1", "1", "1"]}}, "explicit_paddings": {"list": {}}, "fused_ops": {"list": {"s": ["Qmlhc0FkZA==", "UmVsdQ=="]}}, "num_args": {"i": "1"}}}, {"name": "Postprocessor/BatchMultiClassNonMaxSuppression/map/TensorArrayUnstack_3/strided_slice", "op": "StridedSlice", "input": ["Postprocessor/BatchMultiClassNonMaxSuppression/map/TensorArrayUnstack_3/Shape", "Postprocessor/BatchMultiClassNonMaxSuppression/map/TensorArrayUnstack_3/strided_slice/stack", "Postprocessor/BatchMultiClassNonMaxSuppression/map/TensorArrayUnstack_3/strided_slice/stack_1", "Postprocessor/BatchMultiClassNonMaxSuppression/map/TensorArrayUnstack_3/strided_slice/stack_2"], "attr": {"end_mask": {"i": "0"}, "Index": {"type": "DT_INT32"}, "begin_mask": {"i": "0"}, "new_axis_mask": {"i": "0"}, "shrink_axis_mask": {"i": "1"}, "T": {"type": "DT_INT32"}, "ellipsis_mask": {"i": "0"}}}, {"name": "Postprocessor/BatchMultiClassNonMaxSuppression/map/TensorArrayUnstack_3/range", "op": "Range", "input": ["Postprocessor/BatchMultiClassNonMaxSuppression/map/TensorArrayUnstack_3/range/start", "Postprocessor/BatchMultiClassNonMaxSuppression/map/TensorArrayUnstack_3/strided_slice", "Postprocessor/BatchMultiClassNonMaxSuppression/map/TensorArrayUnstack_3/range/delta"], "attr": {"Tidx": {"type": "DT_INT32"}}}, {"name": "FeatureExtractor/MobilenetV3/expanded_conv/project/BatchNorm/FusedBatchNorm", "op": "_FusedConv2D", "input": ["FeatureExtractor/MobilenetV3/expanded_conv/depthwise/depthwise", "FeatureExtractor/MobilenetV3/expanded_conv/project/Conv2D_weights", "FeatureExtractor/MobilenetV3/expanded_conv/project/Conv2D_bn_offset"], "device": "/device:CPU:0", "attr": {"padding": {"s": "U0FNRQ=="}, "epsilon": {"f": 0.0}, "use_cudnn_on_gpu": {"b": true}, "fused_ops": {"list": {"s": ["Qmlhc0FkZA=="]}}, "dilations": {"list": {"i": ["1", "1", "1", "1"]}}, "num_args": {"i": "1"}, "T": {"type": "DT_FLOAT"}, "explicit_paddings": {"list": {}}, "data_format": {"s": "TkhXQw=="}, "strides": {"list": {"i": ["1", "1", "1", "1"]}}}}, {"name": "FeatureExtractor/MobilenetV3/expanded_conv/add", "op": "Add", "input": ["FeatureExtractor/MobilenetV3/expanded_conv/project/BatchNorm/FusedBatchNorm", "FeatureExtractor/MobilenetV3/Conv/hard_swish/mul_1"], "attr": {"T": {"type": "DT_FLOAT"}}}, {"name": "FeatureExtractor/MobilenetV3/expanded_conv_1/expand/Relu", "op": "_FusedConv2D", "input": ["FeatureExtractor/MobilenetV3/expanded_conv/add", "FeatureExtractor/MobilenetV3/expanded_conv_1/expand/Conv2D_weights", "FeatureExtractor/MobilenetV3/expanded_conv_1/expand/Conv2D_bn_offset"], "device": "/device:CPU:0", "attr": {"num_args": {"i": "1"}, "T": {"type": "DT_FLOAT"}, "explicit_paddings": {"list": {}}, "data_format": {"s": "TkhXQw=="}, "padding": {"s": "U0FNRQ=="}, "epsilon": {"f": 0.0}, "strides": {"list": {"i": ["1", "1", "1", "1"]}}, "fused_ops": {"list": {"s": ["Qmlhc0FkZA==", "UmVsdQ=="]}}, "dilations": {"list": {"i": ["1", "1", "1", "1"]}}, "use_cudnn_on_gpu": {"b": true}}}, {"name": "FeatureExtractor/MobilenetV3/expanded_conv_1/depthwise/depthwise", "op": "FusedDepthwiseConv2dNative", "input": ["FeatureExtractor/MobilenetV3/expanded_conv_1/expand/Relu", "FeatureExtractor/MobilenetV3/expanded_conv_1/depthwise/depthwise_weights", "FeatureExtractor/MobilenetV3/expanded_conv_1/depthwise/depthwise_bn_offset"], "attr": {"fused_ops": {"list": {"s": ["Qmlhc0FkZA==", "UmVsdQ=="]}}, "dilations": {"list": {"i": ["1", "1", "1", "1"]}}, "explicit_paddings": {"list": {}}, "T": {"type": "DT_FLOAT"}, "num_args": {"i": "1"}, "padding": {"s": "U0FNRQ=="}, "data_format": {"s": "TkhXQw=="}, "strides": {"list": {"i": ["1", "2", "2", "1"]}}}}, {"name": "FeatureExtractor/MobilenetV3/expanded_conv_1/project/BatchNorm/FusedBatchNorm", "op": "_FusedConv2D", "input": ["FeatureExtractor/MobilenetV3/expanded_conv_1/depthwise/depthwise", "FeatureExtractor/MobilenetV3/expanded_conv_1/project/Conv2D_weights", "FeatureExtractor/MobilenetV3/expanded_conv_1/project/Conv2D_bn_offset"], "device": "/device:CPU:0", "attr": {"T": {"type": "DT_FLOAT"}, "strides": {"list": {"i": ["1", "1", "1", "1"]}}, "data_format": {"s": "TkhXQw=="}, "epsilon": {"f": 0.0}, "use_cudnn_on_gpu": {"b": true}, "dilations": {"list": {"i": ["1", "1", "1", "1"]}}, "padding": {"s": "U0FNRQ=="}, "num_args": {"i": "1"}, "explicit_paddings": {"list": {}}, "fused_ops": {"list": {"s": ["Qmlhc0FkZA=="]}}}}, {"name": "FeatureExtractor/MobilenetV3/expanded_conv_2/expand/Relu", "op": "_FusedConv2D", "input": ["FeatureExtractor/MobilenetV3/expanded_conv_1/project/BatchNorm/FusedBatchNorm", "FeatureExtractor/MobilenetV3/expanded_conv_2/expand/Conv2D_weights", "FeatureExtractor/MobilenetV3/expanded_conv_2/expand/Conv2D_bn_offset"], "device": "/device:CPU:0", "attr": {"padding": {"s": "U0FNRQ=="}, "data_format": {"s": "TkhXQw=="}, "T": {"type": "DT_FLOAT"}, "dilations": {"list": {"i": ["1", "1", "1", "1"]}}, "use_cudnn_on_gpu": {"b": true}, "fused_ops": {"list": {"s": ["Qmlhc0FkZA==", "UmVsdQ=="]}}, "strides": {"list": {"i": ["1", "1", "1", "1"]}}, "num_args": {"i": "1"}, "explicit_paddings": {"list": {}}, "epsilon": {"f": 0.0}}}, {"name": "FeatureExtractor/MobilenetV3/expanded_conv_2/depthwise/depthwise", "op": "FusedDepthwiseConv2dNative", "input": ["FeatureExtractor/MobilenetV3/expanded_conv_2/expand/Relu", "FeatureExtractor/MobilenetV3/expanded_conv_2/depthwise/depthwise_weights", "FeatureExtractor/MobilenetV3/expanded_conv_2/depthwise/depthwise_bn_offset"], "attr": {"strides": {"list": {"i": ["1", "1", "1", "1"]}}, "explicit_paddings": {"list": {}}, "num_args": {"i": "1"}, "padding": {"s": "U0FNRQ=="}, "data_format": {"s": "TkhXQw=="}, "dilations": {"list": {"i": ["1", "1", "1", "1"]}}, "fused_ops": {"list": {"s": ["Qmlhc0FkZA==", "UmVsdQ=="]}}, "T": {"type": "DT_FLOAT"}}}, {"name": "FeatureExtractor/MobilenetV3/expanded_conv_2/project/BatchNorm/FusedBatchNorm", "op": "_FusedConv2D", "input": ["FeatureExtractor/MobilenetV3/expanded_conv_2/depthwise/depthwise", "FeatureExtractor/MobilenetV3/expanded_conv_2/project/Conv2D_weights", "FeatureExtractor/MobilenetV3/expanded_conv_2/project/Conv2D_bn_offset"], "device": "/device:CPU:0", "attr": {"use_cudnn_on_gpu": {"b": true}, "dilations": {"list": {"i": ["1", "1", "1", "1"]}}, "fused_ops": {"list": {"s": ["Qmlhc0FkZA=="]}}, "num_args": {"i": "1"}, "strides": {"list": {"i": ["1", "1", "1", "1"]}}, "T": {"type": "DT_FLOAT"}, "explicit_paddings": {"list": {}}, "padding": {"s": "U0FNRQ=="}, "epsilon": {"f": 0.0}, "data_format": {"s": "TkhXQw=="}}}, {"name": "FeatureExtractor/MobilenetV3/expanded_conv_2/add", "op": "Add", "input": ["FeatureExtractor/MobilenetV3/expanded_conv_2/project/BatchNorm/FusedBatchNorm", "FeatureExtractor/MobilenetV3/expanded_conv_1/project/BatchNorm/FusedBatchNorm"], "attr": {"T": {"type": "DT_FLOAT"}}}, {"name": "FeatureExtractor/MobilenetV3/expanded_conv_3/expand/Relu", "op": "_FusedConv2D", "input": ["FeatureExtractor/MobilenetV3/expanded_conv_2/add", "FeatureExtractor/MobilenetV3/expanded_conv_3/expand/Conv2D_weights", "FeatureExtractor/MobilenetV3/expanded_conv_3/expand/Conv2D_bn_offset"], "device": "/device:CPU:0", "attr": {"fused_ops": {"list": {"s": ["Qmlhc0FkZA==", "UmVsdQ=="]}}, "dilations": {"list": {"i": ["1", "1", "1", "1"]}}, "padding": {"s": "U0FNRQ=="}, "use_cudnn_on_gpu": {"b": true}, "strides": {"list": {"i": ["1", "1", "1", "1"]}}, "epsilon": {"f": 0.0}, "explicit_paddings": {"list": {}}, "num_args": {"i": "1"}, "T": {"type": "DT_FLOAT"}, "data_format": {"s": "TkhXQw=="}}}, {"name": "FeatureExtractor/MobilenetV3/expanded_conv_3/depthwise/depthwise", "op": "FusedDepthwiseConv2dNative", "input": ["FeatureExtractor/MobilenetV3/expanded_conv_3/expand/Relu", "FeatureExtractor/MobilenetV3/expanded_conv_3/depthwise/depthwise_weights", "FeatureExtractor/MobilenetV3/expanded_conv_3/depthwise/depthwise_bn_offset"], "attr": {"T": {"type": "DT_FLOAT"}, "data_format": {"s": "TkhXQw=="}, "strides": {"list": {"i": ["1", "2", "2", "1"]}}, "dilations": {"list": {"i": ["1", "1", "1", "1"]}}, "fused_ops": {"list": {"s": ["Qmlhc0FkZA==", "UmVsdQ=="]}}, "explicit_paddings": {"list": {}}, "padding": {"s": "U0FNRQ=="}, "num_args": {"i": "1"}}}, {"name": "FeatureExtractor/MobilenetV3/expanded_conv_3/squeeze_excite/Mean", "op": "Mean", "input": ["FeatureExtractor/MobilenetV3/expanded_conv_3/depthwise/depthwise", "FeatureExtractor/MobilenetV3/expanded_conv_3/squeeze_excite/Mean/reduction_indices"], "attr": {"T": {"type": "DT_FLOAT"}, "keep_dims": {"b": true}, "Tidx": {"type": "DT_INT32"}}}, {"name": "FeatureExtractor/MobilenetV3/expanded_conv_3/squeeze_excite/Conv/Relu", "op": "_FusedConv2D", "input": ["FeatureExtractor/MobilenetV3/expanded_conv_3/squeeze_excite/Mean", "FeatureExtractor/MobilenetV3/expanded_conv_3/squeeze_excite/Conv/weights", "FeatureExtractor/MobilenetV3/expanded_conv_3/squeeze_excite/Conv/biases"], "device": "/device:CPU:0", "attr": {"data_format": {"s": "TkhXQw=="}, "padding": {"s": "U0FNRQ=="}, "strides": {"list": {"i": ["1", "1", "1", "1"]}}, "dilations": {"list": {"i": ["1", "1", "1", "1"]}}, "fused_ops": {"list": {"s": ["Qmlhc0FkZA==", "UmVsdQ=="]}}, "T": {"type": "DT_FLOAT"}, "use_cudnn_on_gpu": {"b": true}, "num_args": {"i": "1"}, "epsilon": {"f": 0.0}, "explicit_paddings": {"list": {}}}}, {"name": "FeatureExtractor/MobilenetV3/expanded_conv_3/squeeze_excite/Conv_1/BiasAdd", "op": "_FusedConv2D", "input": ["FeatureExtractor/MobilenetV3/expanded_conv_3/squeeze_excite/Conv/Relu", "FeatureExtractor/MobilenetV3/expanded_conv_3/squeeze_excite/Conv_1/weights", "FeatureExtractor/MobilenetV3/expanded_conv_3/squeeze_excite/Conv_1/biases"], "device": "/device:CPU:0", "attr": {"num_args": {"i": "1"}, "fused_ops": {"list": {"s": ["Qmlhc0FkZA=="]}}, "T": {"type": "DT_FLOAT"}, "explicit_paddings": {"list": {}}, "epsilon": {"f": 0.0}, "data_format": {"s": "TkhXQw=="}, "strides": {"list": {"i": ["1", "1", "1", "1"]}}, "dilations": {"list": {"i": ["1", "1", "1", "1"]}}, "padding": {"s": "U0FNRQ=="}, "use_cudnn_on_gpu": {"b": true}}}, {"name": "FeatureExtractor/MobilenetV3/expanded_conv_3/squeeze_excite/Conv_1/add", "op": "Add", "input": ["FeatureExtractor/MobilenetV3/expanded_conv_3/squeeze_excite/Conv_1/BiasAdd", "FeatureExtractor/MobilenetV3/expanded_conv_3/squeeze_excite/Conv_1/add/y"], "attr": {"T": {"type": "DT_FLOAT"}}}, {"name": "FeatureExtractor/MobilenetV3/expanded_conv_3/squeeze_excite/Conv_1/Relu6", "op": "Relu6", "input": ["FeatureExtractor/MobilenetV3/expanded_conv_3/squeeze_excite/Conv_1/add"], "attr": {"T": {"type": "DT_FLOAT"}}}, {"name": "FeatureExtractor/MobilenetV3/expanded_conv_3/squeeze_excite/Conv_1/mul", "op": "Mul", "input": ["FeatureExtractor/MobilenetV3/expanded_conv_3/squeeze_excite/Conv_1/mul/y", "FeatureExtractor/MobilenetV3/expanded_conv_3/squeeze_excite/Conv_1/Relu6"], "attr": {"T": {"type": "DT_FLOAT"}, "_grappler_ArithmeticOptimizer_MinimizeBroadcasts": {"b": true}}}, {"name": "FeatureExtractor/MobilenetV3/expanded_conv_3/squeeze_excite/mul", "op": "Mul", "input": ["FeatureExtractor/MobilenetV3/expanded_conv_3/squeeze_excite/Conv_1/mul", "FeatureExtractor/MobilenetV3/expanded_conv_3/depthwise/depthwise"], "attr": {"_grappler_ArithmeticOptimizer_MinimizeBroadcasts": {"b": true}, "T": {"type": "DT_FLOAT"}}}, {"name": "FeatureExtractor/MobilenetV3/expanded_conv_3/project/BatchNorm/FusedBatchNorm", "op": "_FusedConv2D", "input": ["FeatureExtractor/MobilenetV3/expanded_conv_3/squeeze_excite/mul", "FeatureExtractor/MobilenetV3/expanded_conv_3/project/Conv2D_weights", "FeatureExtractor/MobilenetV3/expanded_conv_3/project/Conv2D_bn_offset"], "device": "/device:CPU:0", "attr": {"padding": {"s": "U0FNRQ=="}, "data_format": {"s": "TkhXQw=="}, "strides": {"list": {"i": ["1", "1", "1", "1"]}}, "dilations": {"list": {"i": ["1", "1", "1", "1"]}}, "fused_ops": {"list": {"s": ["Qmlhc0FkZA=="]}}, "T": {"type": "DT_FLOAT"}, "use_cudnn_on_gpu": {"b": true}, "explicit_paddings": {"list": {}}, "epsilon": {"f": 0.0}, "num_args": {"i": "1"}}}, {"name": "FeatureExtractor/MobilenetV3/expanded_conv_4/expand/Relu", "op": "_FusedConv2D", "input": ["FeatureExtractor/MobilenetV3/expanded_conv_3/project/BatchNorm/FusedBatchNorm", "FeatureExtractor/MobilenetV3/expanded_conv_4/expand/Conv2D_weights", "FeatureExtractor/MobilenetV3/expanded_conv_4/expand/Conv2D_bn_offset"], "device": "/device:CPU:0", "attr": {"epsilon": {"f": 0.0}, "num_args": {"i": "1"}, "T": {"type": "DT_FLOAT"}, "data_format": {"s": "TkhXQw=="}, "dilations": {"list": {"i": ["1", "1", "1", "1"]}}, "fused_ops": {"list": {"s": ["Qmlhc0FkZA==", "UmVsdQ=="]}}, "padding": {"s": "U0FNRQ=="}, "use_cudnn_on_gpu": {"b": true}, "strides": {"list": {"i": ["1", "1", "1", "1"]}}, "explicit_paddings": {"list": {}}}}, {"name": "FeatureExtractor/MobilenetV3/expanded_conv_4/depthwise/depthwise", "op": "FusedDepthwiseConv2dNative", "input": ["FeatureExtractor/MobilenetV3/expanded_conv_4/expand/Relu", "FeatureExtractor/MobilenetV3/expanded_conv_4/depthwise/depthwise_weights", "FeatureExtractor/MobilenetV3/expanded_conv_4/depthwise/depthwise_bn_offset"], "attr": {"num_args": {"i": "1"}, "explicit_paddings": {"list": {}}, "data_format": {"s": "TkhXQw=="}, "padding": {"s": "U0FNRQ=="}, "strides": {"list": {"i": ["1", "1", "1", "1"]}}, "T": {"type": "DT_FLOAT"}, "dilations": {"list": {"i": ["1", "1", "1", "1"]}}, "fused_ops": {"list": {"s": ["Qmlhc0FkZA==", "UmVsdQ=="]}}}}, {"name": "FeatureExtractor/MobilenetV3/expanded_conv_4/squeeze_excite/Mean", "op": "Mean", "input": ["FeatureExtractor/MobilenetV3/expanded_conv_4/depthwise/depthwise", "FeatureExtractor/MobilenetV3/expanded_conv_4/squeeze_excite/Mean/reduction_indices"], "attr": {"keep_dims": {"b": true}, "Tidx": {"type": "DT_INT32"}, "T": {"type": "DT_FLOAT"}}}, {"name": "FeatureExtractor/MobilenetV3/expanded_conv_4/squeeze_excite/Conv/Relu", "op": "_FusedConv2D", "input": ["FeatureExtractor/MobilenetV3/expanded_conv_4/squeeze_excite/Mean", "FeatureExtractor/MobilenetV3/expanded_conv_4/squeeze_excite/Conv/weights", "FeatureExtractor/MobilenetV3/expanded_conv_4/squeeze_excite/Conv/biases"], "device": "/device:CPU:0", "attr": {"use_cudnn_on_gpu": {"b": true}, "num_args": {"i": "1"}, "fused_ops": {"list": {"s": ["Qmlhc0FkZA==", "UmVsdQ=="]}}, "strides": {"list": {"i": ["1", "1", "1", "1"]}}, "epsilon": {"f": 0.0}, "explicit_paddings": {"list": {}}, "padding": {"s": "U0FNRQ=="}, "data_format": {"s": "TkhXQw=="}, "T": {"type": "DT_FLOAT"}, "dilations": {"list": {"i": ["1", "1", "1", "1"]}}}}, {"name": "FeatureExtractor/MobilenetV3/expanded_conv_4/squeeze_excite/Conv_1/BiasAdd", "op": "_FusedConv2D", "input": ["FeatureExtractor/MobilenetV3/expanded_conv_4/squeeze_excite/Conv/Relu", "FeatureExtractor/MobilenetV3/expanded_conv_4/squeeze_excite/Conv_1/weights", "FeatureExtractor/MobilenetV3/expanded_conv_4/squeeze_excite/Conv_1/biases"], "device": "/device:CPU:0", "attr": {"use_cudnn_on_gpu": {"b": true}, "fused_ops": {"list": {"s": ["Qmlhc0FkZA=="]}}, "dilations": {"list": {"i": ["1", "1", "1", "1"]}}, "strides": {"list": {"i": ["1", "1", "1", "1"]}}, "num_args": {"i": "1"}, "explicit_paddings": {"list": {}}, "padding": {"s": "U0FNRQ=="}, "T": {"type": "DT_FLOAT"}, "epsilon": {"f": 0.0}, "data_format": {"s": "TkhXQw=="}}}, {"name": "FeatureExtractor/MobilenetV3/expanded_conv_4/squeeze_excite/Conv_1/add", "op": "Add", "input": ["FeatureExtractor/MobilenetV3/expanded_conv_4/squeeze_excite/Conv_1/BiasAdd", "FeatureExtractor/MobilenetV3/expanded_conv_4/squeeze_excite/Conv_1/add/y"], "attr": {"T": {"type": "DT_FLOAT"}}}, {"name": "FeatureExtractor/MobilenetV3/expanded_conv_4/squeeze_excite/Conv_1/Relu6", "op": "Relu6", "input": ["FeatureExtractor/MobilenetV3/expanded_conv_4/squeeze_excite/Conv_1/add"], "attr": {"T": {"type": "DT_FLOAT"}}}, {"name": "FeatureExtractor/MobilenetV3/expanded_conv_4/squeeze_excite/Conv_1/mul", "op": "Mul", "input": ["FeatureExtractor/MobilenetV3/expanded_conv_4/squeeze_excite/Conv_1/mul/y", "FeatureExtractor/MobilenetV3/expanded_conv_4/squeeze_excite/Conv_1/Relu6"], "attr": {"_grappler_ArithmeticOptimizer_MinimizeBroadcasts": {"b": true}, "T": {"type": "DT_FLOAT"}}}, {"name": "FeatureExtractor/MobilenetV3/expanded_conv_4/squeeze_excite/mul", "op": "Mul", "input": ["FeatureExtractor/MobilenetV3/expanded_conv_4/squeeze_excite/Conv_1/mul", "FeatureExtractor/MobilenetV3/expanded_conv_4/depthwise/depthwise"], "attr": {"T": {"type": "DT_FLOAT"}, "_grappler_ArithmeticOptimizer_MinimizeBroadcasts": {"b": true}}}, {"name": "FeatureExtractor/MobilenetV3/expanded_conv_4/project/BatchNorm/FusedBatchNorm", "op": "_FusedConv2D", "input": ["FeatureExtractor/MobilenetV3/expanded_conv_4/squeeze_excite/mul", "FeatureExtractor/MobilenetV3/expanded_conv_4/project/Conv2D_weights", "FeatureExtractor/MobilenetV3/expanded_conv_4/project/Conv2D_bn_offset"], "device": "/device:CPU:0", "attr": {"data_format": {"s": "TkhXQw=="}, "padding": {"s": "U0FNRQ=="}, "strides": {"list": {"i": ["1", "1", "1", "1"]}}, "dilations": {"list": {"i": ["1", "1", "1", "1"]}}, "fused_ops": {"list": {"s": ["Qmlhc0FkZA=="]}}, "T": {"type": "DT_FLOAT"}, "use_cudnn_on_gpu": {"b": true}, "num_args": {"i": "1"}, "explicit_paddings": {"list": {}}, "epsilon": {"f": 0.0}}}, {"name": "FeatureExtractor/MobilenetV3/expanded_conv_4/add", "op": "Add", "input": ["FeatureExtractor/MobilenetV3/expanded_conv_4/project/BatchNorm/FusedBatchNorm", "FeatureExtractor/MobilenetV3/expanded_conv_3/project/BatchNorm/FusedBatchNorm"], "attr": {"T": {"type": "DT_FLOAT"}}}, {"name": "FeatureExtractor/MobilenetV3/expanded_conv_5/expand/Relu", "op": "_FusedConv2D", "input": ["FeatureExtractor/MobilenetV3/expanded_conv_4/add", "FeatureExtractor/MobilenetV3/expanded_conv_5/expand/Conv2D_weights", "FeatureExtractor/MobilenetV3/expanded_conv_5/expand/Conv2D_bn_offset"], "device": "/device:CPU:0", "attr": {"data_format": {"s": "TkhXQw=="}, "use_cudnn_on_gpu": {"b": true}, "dilations": {"list": {"i": ["1", "1", "1", "1"]}}, "padding": {"s": "U0FNRQ=="}, "num_args": {"i": "1"}, "T": {"type": "DT_FLOAT"}, "explicit_paddings": {"list": {}}, "fused_ops": {"list": {"s": ["Qmlhc0FkZA==", "UmVsdQ=="]}}, "epsilon": {"f": 0.0}, "strides": {"list": {"i": ["1", "1", "1", "1"]}}}}, {"name": "FeatureExtractor/MobilenetV3/expanded_conv_5/depthwise/depthwise", "op": "FusedDepthwiseConv2dNative", "input": ["FeatureExtractor/MobilenetV3/expanded_conv_5/expand/Relu", "FeatureExtractor/MobilenetV3/expanded_conv_5/depthwise/depthwise_weights", "FeatureExtractor/MobilenetV3/expanded_conv_5/depthwise/depthwise_bn_offset"], "attr": {"dilations": {"list": {"i": ["1", "1", "1", "1"]}}, "padding": {"s": "U0FNRQ=="}, "explicit_paddings": {"list": {}}, "fused_ops": {"list": {"s": ["Qmlhc0FkZA==", "UmVsdQ=="]}}, "T": {"type": "DT_FLOAT"}, "num_args": {"i": "1"}, "data_format": {"s": "TkhXQw=="}, "strides": {"list": {"i": ["1", "1", "1", "1"]}}}}, {"name": "FeatureExtractor/MobilenetV3/expanded_conv_5/squeeze_excite/Mean", "op": "Mean", "input": ["FeatureExtractor/MobilenetV3/expanded_conv_5/depthwise/depthwise", "FeatureExtractor/MobilenetV3/expanded_conv_5/squeeze_excite/Mean/reduction_indices"], "attr": {"Tidx": {"type": "DT_INT32"}, "T": {"type": "DT_FLOAT"}, "keep_dims": {"b": true}}}, {"name": "FeatureExtractor/MobilenetV3/expanded_conv_5/squeeze_excite/Conv/Relu", "op": "_FusedConv2D", "input": ["FeatureExtractor/MobilenetV3/expanded_conv_5/squeeze_excite/Mean", "FeatureExtractor/MobilenetV3/expanded_conv_5/squeeze_excite/Conv/weights", "FeatureExtractor/MobilenetV3/expanded_conv_5/squeeze_excite/Conv/biases"], "device": "/device:CPU:0", "attr": {"fused_ops": {"list": {"s": ["Qmlhc0FkZA==", "UmVsdQ=="]}}, "padding": {"s": "U0FNRQ=="}, "T": {"type": "DT_FLOAT"}, "data_format": {"s": "TkhXQw=="}, "use_cudnn_on_gpu": {"b": true}, "dilations": {"list": {"i": ["1", "1", "1", "1"]}}, "strides": {"list": {"i": ["1", "1", "1", "1"]}}, "explicit_paddings": {"list": {}}, "num_args": {"i": "1"}, "epsilon": {"f": 0.0}}}, {"name": "FeatureExtractor/MobilenetV3/expanded_conv_5/squeeze_excite/Conv_1/BiasAdd", "op": "_FusedConv2D", "input": ["FeatureExtractor/MobilenetV3/expanded_conv_5/squeeze_excite/Conv/Relu", "FeatureExtractor/MobilenetV3/expanded_conv_5/squeeze_excite/Conv_1/weights", "FeatureExtractor/MobilenetV3/expanded_conv_5/squeeze_excite/Conv_1/biases"], "device": "/device:CPU:0", "attr": {"use_cudnn_on_gpu": {"b": true}, "dilations": {"list": {"i": ["1", "1", "1", "1"]}}, "num_args": {"i": "1"}, "T": {"type": "DT_FLOAT"}, "padding": {"s": "U0FNRQ=="}, "explicit_paddings": {"list": {}}, "fused_ops": {"list": {"s": ["Qmlhc0FkZA=="]}}, "epsilon": {"f": 0.0}, "data_format": {"s": "TkhXQw=="}, "strides": {"list": {"i": ["1", "1", "1", "1"]}}}}, {"name": "FeatureExtractor/MobilenetV3/expanded_conv_5/squeeze_excite/Conv_1/add", "op": "Add", "input": ["FeatureExtractor/MobilenetV3/expanded_conv_5/squeeze_excite/Conv_1/BiasAdd", "FeatureExtractor/MobilenetV3/expanded_conv_5/squeeze_excite/Conv_1/add/y"], "attr": {"T": {"type": "DT_FLOAT"}}}, {"name": "FeatureExtractor/MobilenetV3/expanded_conv_5/squeeze_excite/Conv_1/Relu6", "op": "Relu6", "input": ["FeatureExtractor/MobilenetV3/expanded_conv_5/squeeze_excite/Conv_1/add"], "attr": {"T": {"type": "DT_FLOAT"}}}, {"name": "FeatureExtractor/MobilenetV3/expanded_conv_5/squeeze_excite/Conv_1/mul", "op": "Mul", "input": ["FeatureExtractor/MobilenetV3/expanded_conv_5/squeeze_excite/Conv_1/mul/y", "FeatureExtractor/MobilenetV3/expanded_conv_5/squeeze_excite/Conv_1/Relu6"], "attr": {"_grappler_ArithmeticOptimizer_MinimizeBroadcasts": {"b": true}, "T": {"type": "DT_FLOAT"}}}, {"name": "FeatureExtractor/MobilenetV3/expanded_conv_5/squeeze_excite/mul", "op": "Mul", "input": ["FeatureExtractor/MobilenetV3/expanded_conv_5/squeeze_excite/Conv_1/mul", "FeatureExtractor/MobilenetV3/expanded_conv_5/depthwise/depthwise"], "attr": {"_grappler_ArithmeticOptimizer_MinimizeBroadcasts": {"b": true}, "T": {"type": "DT_FLOAT"}}}, {"name": "FeatureExtractor/MobilenetV3/expanded_conv_5/project/BatchNorm/FusedBatchNorm", "op": "_FusedConv2D", "input": ["FeatureExtractor/MobilenetV3/expanded_conv_5/squeeze_excite/mul", "FeatureExtractor/MobilenetV3/expanded_conv_5/project/Conv2D_weights", "FeatureExtractor/MobilenetV3/expanded_conv_5/project/Conv2D_bn_offset"], "device": "/device:CPU:0", "attr": {"fused_ops": {"list": {"s": ["Qmlhc0FkZA=="]}}, "padding": {"s": "U0FNRQ=="}, "T": {"type": "DT_FLOAT"}, "data_format": {"s": "TkhXQw=="}, "dilations": {"list": {"i": ["1", "1", "1", "1"]}}, "use_cudnn_on_gpu": {"b": true}, "strides": {"list": {"i": ["1", "1", "1", "1"]}}, "num_args": {"i": "1"}, "explicit_paddings": {"list": {}}, "epsilon": {"f": 0.0}}}, {"name": "FeatureExtractor/MobilenetV3/expanded_conv_5/add", "op": "Add", "input": ["FeatureExtractor/MobilenetV3/expanded_conv_5/project/BatchNorm/FusedBatchNorm", "FeatureExtractor/MobilenetV3/expanded_conv_4/add"], "attr": {"T": {"type": "DT_FLOAT"}}}, {"name": "FeatureExtractor/MobilenetV3/expanded_conv_6/expand/BatchNorm/FusedBatchNorm", "op": "_FusedConv2D", "input": ["FeatureExtractor/MobilenetV3/expanded_conv_5/add", "FeatureExtractor/MobilenetV3/expanded_conv_6/expand/Conv2D_weights", "FeatureExtractor/MobilenetV3/expanded_conv_6/expand/Conv2D_bn_offset"], "device": "/device:CPU:0", "attr": {"fused_ops": {"list": {"s": ["Qmlhc0FkZA=="]}}, "num_args": {"i": "1"}, "explicit_paddings": {"list": {}}, "epsilon": {"f": 0.0}, "data_format": {"s": "TkhXQw=="}, "strides": {"list": {"i": ["1", "1", "1", "1"]}}, "T": {"type": "DT_FLOAT"}, "padding": {"s": "U0FNRQ=="}, "use_cudnn_on_gpu": {"b": true}, "dilations": {"list": {"i": ["1", "1", "1", "1"]}}}}, {"name": "FeatureExtractor/MobilenetV3/expanded_conv_6/expand/hard_swish/mul", "op": "Mul", "input": ["FeatureExtractor/MobilenetV3/expanded_conv_6/expand/hard_swish/mul_1/y", "FeatureExtractor/MobilenetV3/expanded_conv_6/expand/BatchNorm/FusedBatchNorm"], "attr": {"T": {"type": "DT_FLOAT"}, "_grappler_ArithmeticOptimizer_MinimizeBroadcasts": {"b": true}}}, {"name": "FeatureExtractor/MobilenetV3/expanded_conv_6/expand/hard_swish/add", "op": "Add", "input": ["FeatureExtractor/MobilenetV3/expanded_conv_6/expand/BatchNorm/FusedBatchNorm", "FeatureExtractor/MobilenetV3/expanded_conv_6/expand/hard_swish/add/y"], "attr": {"T": {"type": "DT_FLOAT"}}}, {"name": "FeatureExtractor/MobilenetV3/expanded_conv_6/expand/hard_swish/Relu6", "op": "Relu6", "input": ["FeatureExtractor/MobilenetV3/expanded_conv_6/expand/hard_swish/add"], "attr": {"T": {"type": "DT_FLOAT"}}}, {"name": "FeatureExtractor/MobilenetV3/expanded_conv_6/expand/hard_swish/mul_1", "op": "Mul", "input": ["FeatureExtractor/MobilenetV3/expanded_conv_6/expand/hard_swish/mul", "FeatureExtractor/MobilenetV3/expanded_conv_6/expand/hard_swish/Relu6"], "attr": {"T": {"type": "DT_FLOAT"}, "_grappler_ArithmeticOptimizer_MinimizeBroadcasts": {"b": true}}}, {"name": "FeatureExtractor/MobilenetV3/expanded_conv_6/depthwise/depthwise", "op": "FusedDepthwiseConv2dNative", "input": ["FeatureExtractor/MobilenetV3/expanded_conv_6/expand/hard_swish/mul_1", "FeatureExtractor/MobilenetV3/expanded_conv_6/depthwise/depthwise_weights", "FeatureExtractor/MobilenetV3/expanded_conv_6/depthwise/depthwise_bn_offset"], "attr": {"strides": {"list": {"i": ["1", "2", "2", "1"]}}, "dilations": {"list": {"i": ["1", "1", "1", "1"]}}, "padding": {"s": "U0FNRQ=="}, "num_args": {"i": "1"}, "T": {"type": "DT_FLOAT"}, "fused_ops": {"list": {"s": ["Qmlhc0FkZA=="]}}, "explicit_paddings": {"list": {}}, "data_format": {"s": "TkhXQw=="}}}, {"name": "FeatureExtractor/MobilenetV3/expanded_conv_6/depthwise/hard_swish/mul", "op": "Mul", "input": ["FeatureExtractor/MobilenetV3/expanded_conv_6/depthwise/hard_swish/mul_1/y", "FeatureExtractor/MobilenetV3/expanded_conv_6/depthwise/depthwise"], "attr": {"T": {"type": "DT_FLOAT"}, "_grappler_ArithmeticOptimizer_MinimizeBroadcasts": {"b": true}}}, {"name": "FeatureExtractor/MobilenetV3/expanded_conv_6/depthwise/hard_swish/add", "op": "Add", "input": ["FeatureExtractor/MobilenetV3/expanded_conv_6/depthwise/depthwise", "FeatureExtractor/MobilenetV3/expanded_conv_6/depthwise/hard_swish/add/y"], "attr": {"T": {"type": "DT_FLOAT"}}}, {"name": "FeatureExtractor/MobilenetV3/expanded_conv_6/depthwise/hard_swish/Relu6", "op": "Relu6", "input": ["FeatureExtractor/MobilenetV3/expanded_conv_6/depthwise/hard_swish/add"], "attr": {"T": {"type": "DT_FLOAT"}}}, {"name": "FeatureExtractor/MobilenetV3/expanded_conv_6/depthwise/hard_swish/mul_1", "op": "Mul", "input": ["FeatureExtractor/MobilenetV3/expanded_conv_6/depthwise/hard_swish/mul", "FeatureExtractor/MobilenetV3/expanded_conv_6/depthwise/hard_swish/Relu6"], "attr": {"T": {"type": "DT_FLOAT"}, "_grappler_ArithmeticOptimizer_MinimizeBroadcasts": {"b": true}}}, {"name": "FeatureExtractor/MobilenetV3/expanded_conv_6/project/BatchNorm/FusedBatchNorm", "op": "_FusedConv2D", "input": ["FeatureExtractor/MobilenetV3/expanded_conv_6/depthwise/hard_swish/mul_1", "FeatureExtractor/MobilenetV3/expanded_conv_6/project/Conv2D_weights", "FeatureExtractor/MobilenetV3/expanded_conv_6/project/Conv2D_bn_offset"], "device": "/device:CPU:0", "attr": {"strides": {"list": {"i": ["1", "1", "1", "1"]}}, "epsilon": {"f": 0.0}, "T": {"type": "DT_FLOAT"}, "explicit_paddings": {"list": {}}, "data_format": {"s": "TkhXQw=="}, "fused_ops": {"list": {"s": ["Qmlhc0FkZA=="]}}, "dilations": {"list": {"i": ["1", "1", "1", "1"]}}, "use_cudnn_on_gpu": {"b": true}, "padding": {"s": "U0FNRQ=="}, "num_args": {"i": "1"}}}, {"name": "FeatureExtractor/MobilenetV3/expanded_conv_7/expand/BatchNorm/FusedBatchNorm", "op": "_FusedConv2D", "input": ["FeatureExtractor/MobilenetV3/expanded_conv_6/project/BatchNorm/FusedBatchNorm", "FeatureExtractor/MobilenetV3/expanded_conv_7/expand/Conv2D_weights", "FeatureExtractor/MobilenetV3/expanded_conv_7/expand/Conv2D_bn_offset"], "device": "/device:CPU:0", "attr": {"padding": {"s": "U0FNRQ=="}, "explicit_paddings": {"list": {}}, "fused_ops": {"list": {"s": ["Qmlhc0FkZA=="]}}, "epsilon": {"f": 0.0}, "data_format": {"s": "TkhXQw=="}, "strides": {"list": {"i": ["1", "1", "1", "1"]}}, "use_cudnn_on_gpu": {"b": true}, "dilations": {"list": {"i": ["1", "1", "1", "1"]}}, "num_args": {"i": "1"}, "T": {"type": "DT_FLOAT"}}}, {"name": "FeatureExtractor/MobilenetV3/expanded_conv_7/expand/hard_swish/mul", "op": "Mul", "input": ["FeatureExtractor/MobilenetV3/expanded_conv_7/expand/hard_swish/mul_1/y", "FeatureExtractor/MobilenetV3/expanded_conv_7/expand/BatchNorm/FusedBatchNorm"], "attr": {"T": {"type": "DT_FLOAT"}, "_grappler_ArithmeticOptimizer_MinimizeBroadcasts": {"b": true}}}, {"name": "FeatureExtractor/MobilenetV3/expanded_conv_7/expand/hard_swish/add", "op": "Add", "input": ["FeatureExtractor/MobilenetV3/expanded_conv_7/expand/BatchNorm/FusedBatchNorm", "FeatureExtractor/MobilenetV3/expanded_conv_7/expand/hard_swish/add/y"], "attr": {"T": {"type": "DT_FLOAT"}}}, {"name": "FeatureExtractor/MobilenetV3/expanded_conv_7/expand/hard_swish/Relu6", "op": "Relu6", "input": ["FeatureExtractor/MobilenetV3/expanded_conv_7/expand/hard_swish/add"], "attr": {"T": {"type": "DT_FLOAT"}}}, {"name": "FeatureExtractor/MobilenetV3/expanded_conv_7/expand/hard_swish/mul_1", "op": "Mul", "input": ["FeatureExtractor/MobilenetV3/expanded_conv_7/expand/hard_swish/mul", "FeatureExtractor/MobilenetV3/expanded_conv_7/expand/hard_swish/Relu6"], "attr": {"_grappler_ArithmeticOptimizer_MinimizeBroadcasts": {"b": true}, "T": {"type": "DT_FLOAT"}}}, {"name": "FeatureExtractor/MobilenetV3/expanded_conv_7/depthwise/depthwise", "op": "FusedDepthwiseConv2dNative", "input": ["FeatureExtractor/MobilenetV3/expanded_conv_7/expand/hard_swish/mul_1", "FeatureExtractor/MobilenetV3/expanded_conv_7/depthwise/depthwise_weights", "FeatureExtractor/MobilenetV3/expanded_conv_7/depthwise/depthwise_bn_offset"], "attr": {"strides": {"list": {"i": ["1", "1", "1", "1"]}}, "padding": {"s": "U0FNRQ=="}, "data_format": {"s": "TkhXQw=="}, "T": {"type": "DT_FLOAT"}, "explicit_paddings": {"list": {}}, "dilations": {"list": {"i": ["1", "1", "1", "1"]}}, "num_args": {"i": "1"}, "fused_ops": {"list": {"s": ["Qmlhc0FkZA=="]}}}}, {"name": "FeatureExtractor/MobilenetV3/expanded_conv_7/depthwise/hard_swish/mul", "op": "Mul", "input": ["FeatureExtractor/MobilenetV3/expanded_conv_7/depthwise/hard_swish/mul_1/y", "FeatureExtractor/MobilenetV3/expanded_conv_7/depthwise/depthwise"], "attr": {"T": {"type": "DT_FLOAT"}, "_grappler_ArithmeticOptimizer_MinimizeBroadcasts": {"b": true}}}, {"name": "FeatureExtractor/MobilenetV3/expanded_conv_7/depthwise/hard_swish/add", "op": "Add", "input": ["FeatureExtractor/MobilenetV3/expanded_conv_7/depthwise/depthwise", "FeatureExtractor/MobilenetV3/expanded_conv_7/depthwise/hard_swish/add/y"], "attr": {"T": {"type": "DT_FLOAT"}}}, {"name": "FeatureExtractor/MobilenetV3/expanded_conv_7/depthwise/hard_swish/Relu6", "op": "Relu6", "input": ["FeatureExtractor/MobilenetV3/expanded_conv_7/depthwise/hard_swish/add"], "attr": {"T": {"type": "DT_FLOAT"}}}, {"name": "FeatureExtractor/MobilenetV3/expanded_conv_7/depthwise/hard_swish/mul_1", "op": "Mul", "input": ["FeatureExtractor/MobilenetV3/expanded_conv_7/depthwise/hard_swish/mul", "FeatureExtractor/MobilenetV3/expanded_conv_7/depthwise/hard_swish/Relu6"], "attr": {"T": {"type": "DT_FLOAT"}, "_grappler_ArithmeticOptimizer_MinimizeBroadcasts": {"b": true}}}, {"name": "FeatureExtractor/MobilenetV3/expanded_conv_7/project/BatchNorm/FusedBatchNorm", "op": "_FusedConv2D", "input": ["FeatureExtractor/MobilenetV3/expanded_conv_7/depthwise/hard_swish/mul_1", "FeatureExtractor/MobilenetV3/expanded_conv_7/project/Conv2D_weights", "FeatureExtractor/MobilenetV3/expanded_conv_7/project/Conv2D_bn_offset"], "device": "/device:CPU:0", "attr": {"T": {"type": "DT_FLOAT"}, "padding": {"s": "U0FNRQ=="}, "epsilon": {"f": 0.0}, "data_format": {"s": "TkhXQw=="}, "use_cudnn_on_gpu": {"b": true}, "dilations": {"list": {"i": ["1", "1", "1", "1"]}}, "fused_ops": {"list": {"s": ["Qmlhc0FkZA=="]}}, "num_args": {"i": "1"}, "strides": {"list": {"i": ["1", "1", "1", "1"]}}, "explicit_paddings": {"list": {}}}}, {"name": "FeatureExtractor/MobilenetV3/expanded_conv_7/add", "op": "Add", "input": ["FeatureExtractor/MobilenetV3/expanded_conv_7/project/BatchNorm/FusedBatchNorm", "FeatureExtractor/MobilenetV3/expanded_conv_6/project/BatchNorm/FusedBatchNorm"], "attr": {"T": {"type": "DT_FLOAT"}}}, {"name": "FeatureExtractor/MobilenetV3/expanded_conv_8/expand/BatchNorm/FusedBatchNorm", "op": "_FusedConv2D", "input": ["FeatureExtractor/MobilenetV3/expanded_conv_7/add", "FeatureExtractor/MobilenetV3/expanded_conv_8/expand/Conv2D_weights", "FeatureExtractor/MobilenetV3/expanded_conv_8/expand/Conv2D_bn_offset"], "device": "/device:CPU:0", "attr": {"epsilon": {"f": 0.0}, "T": {"type": "DT_FLOAT"}, "padding": {"s": "U0FNRQ=="}, "data_format": {"s": "TkhXQw=="}, "use_cudnn_on_gpu": {"b": true}, "dilations": {"list": {"i": ["1", "1", "1", "1"]}}, "num_args": {"i": "1"}, "strides": {"list": {"i": ["1", "1", "1", "1"]}}, "explicit_paddings": {"list": {}}, "fused_ops": {"list": {"s": ["Qmlhc0FkZA=="]}}}}, {"name": "FeatureExtractor/MobilenetV3/expanded_conv_8/expand/hard_swish/mul", "op": "Mul", "input": ["FeatureExtractor/MobilenetV3/expanded_conv_8/expand/hard_swish/mul_1/y", "FeatureExtractor/MobilenetV3/expanded_conv_8/expand/BatchNorm/FusedBatchNorm"], "attr": {"T": {"type": "DT_FLOAT"}, "_grappler_ArithmeticOptimizer_MinimizeBroadcasts": {"b": true}}}, {"name": "FeatureExtractor/MobilenetV3/expanded_conv_8/expand/hard_swish/add", "op": "Add", "input": ["FeatureExtractor/MobilenetV3/expanded_conv_8/expand/BatchNorm/FusedBatchNorm", "FeatureExtractor/MobilenetV3/expanded_conv_8/expand/hard_swish/add/y"], "attr": {"T": {"type": "DT_FLOAT"}}}, {"name": "FeatureExtractor/MobilenetV3/expanded_conv_8/expand/hard_swish/Relu6", "op": "Relu6", "input": ["FeatureExtractor/MobilenetV3/expanded_conv_8/expand/hard_swish/add"], "attr": {"T": {"type": "DT_FLOAT"}}}, {"name": "FeatureExtractor/MobilenetV3/expanded_conv_8/expand/hard_swish/mul_1", "op": "Mul", "input": ["FeatureExtractor/MobilenetV3/expanded_conv_8/expand/hard_swish/mul", "FeatureExtractor/MobilenetV3/expanded_conv_8/expand/hard_swish/Relu6"], "attr": {"_grappler_ArithmeticOptimizer_MinimizeBroadcasts": {"b": true}, "T": {"type": "DT_FLOAT"}}}, {"name": "FeatureExtractor/MobilenetV3/expanded_conv_8/depthwise/depthwise", "op": "FusedDepthwiseConv2dNative", "input": ["FeatureExtractor/MobilenetV3/expanded_conv_8/expand/hard_swish/mul_1", "FeatureExtractor/MobilenetV3/expanded_conv_8/depthwise/depthwise_weights", "FeatureExtractor/MobilenetV3/expanded_conv_8/depthwise/depthwise_bn_offset"], "attr": {"T": {"type": "DT_FLOAT"}, "strides": {"list": {"i": ["1", "1", "1", "1"]}}, "num_args": {"i": "1"}, "data_format": {"s": "TkhXQw=="}, "dilations": {"list": {"i": ["1", "1", "1", "1"]}}, "padding": {"s": "U0FNRQ=="}, "explicit_paddings": {"list": {}}, "fused_ops": {"list": {"s": ["Qmlhc0FkZA=="]}}}}, {"name": "FeatureExtractor/MobilenetV3/expanded_conv_8/depthwise/hard_swish/mul", "op": "Mul", "input": ["FeatureExtractor/MobilenetV3/expanded_conv_8/depthwise/hard_swish/mul_1/y", "FeatureExtractor/MobilenetV3/expanded_conv_8/depthwise/depthwise"], "attr": {"T": {"type": "DT_FLOAT"}, "_grappler_ArithmeticOptimizer_MinimizeBroadcasts": {"b": true}}}, {"name": "FeatureExtractor/MobilenetV3/expanded_conv_8/depthwise/hard_swish/add", "op": "Add", "input": ["FeatureExtractor/MobilenetV3/expanded_conv_8/depthwise/depthwise", "FeatureExtractor/MobilenetV3/expanded_conv_8/depthwise/hard_swish/add/y"], "attr": {"T": {"type": "DT_FLOAT"}}}, {"name": "FeatureExtractor/MobilenetV3/expanded_conv_8/depthwise/hard_swish/Relu6", "op": "Relu6", "input": ["FeatureExtractor/MobilenetV3/expanded_conv_8/depthwise/hard_swish/add"], "attr": {"T": {"type": "DT_FLOAT"}}}, {"name": "FeatureExtractor/MobilenetV3/expanded_conv_8/depthwise/hard_swish/mul_1", "op": "Mul", "input": ["FeatureExtractor/MobilenetV3/expanded_conv_8/depthwise/hard_swish/mul", "FeatureExtractor/MobilenetV3/expanded_conv_8/depthwise/hard_swish/Relu6"], "attr": {"T": {"type": "DT_FLOAT"}, "_grappler_ArithmeticOptimizer_MinimizeBroadcasts": {"b": true}}}, {"name": "FeatureExtractor/MobilenetV3/expanded_conv_8/project/BatchNorm/FusedBatchNorm", "op": "_FusedConv2D", "input": ["FeatureExtractor/MobilenetV3/expanded_conv_8/depthwise/hard_swish/mul_1", "FeatureExtractor/MobilenetV3/expanded_conv_8/project/Conv2D_weights", "FeatureExtractor/MobilenetV3/expanded_conv_8/project/Conv2D_bn_offset"], "device": "/device:CPU:0", "attr": {"strides": {"list": {"i": ["1", "1", "1", "1"]}}, "T": {"type": "DT_FLOAT"}, "num_args": {"i": "1"}, "data_format": {"s": "TkhXQw=="}, "dilations": {"list": {"i": ["1", "1", "1", "1"]}}, "epsilon": {"f": 0.0}, "explicit_paddings": {"list": {}}, "padding": {"s": "U0FNRQ=="}, "fused_ops": {"list": {"s": ["Qmlhc0FkZA=="]}}, "use_cudnn_on_gpu": {"b": true}}…
Reshape_5/shape", "shape": [1], "dtype": "int32"}, {"name": "Postprocessor/BatchMultiClassNonMaxSuppression/map/while/MultiClassNonMaxSuppression/non_max_suppression_padded_5/NonMaxSuppressionV4/max_output_size", "shape": [], "dtype": "int32"}, {"name": "Postprocessor/BatchMultiClassNonMaxSuppression/map/while/MultiClassNonMaxSuppression/non_max_suppression_padded_5/iou_threshold", "shape": [], "dtype": "float32"}, {"name": "Postprocessor/BatchMultiClassNonMaxSuppression/map/while/MultiClassNonMaxSuppression/non_max_suppression_padded_5/score_threshold", "shape": [], "dtype": "float32"}, {"name": "Postprocessor/BatchMultiClassNonMaxSuppression/map/while/MultiClassNonMaxSuppression/Gather_5/GatherV2_1/axis", "shape": [], "dtype": "int32"}, {"name": "Postprocessor/BatchMultiClassNonMaxSuppression/map/while/MultiClassNonMaxSuppression/mul_5", "shape": [100], "dtype": "float32"}, {"name": "Postprocessor/BatchMultiClassNonMaxSuppression/map/while/MultiClassNonMaxSuppression/range_6", "shape": [100], "dtype": "int32"}, {"name": "Postprocessor/BatchMultiClassNonMaxSuppression/map/while/MultiClassNonMaxSuppression/Slice_6/begin", "shape": [2], "dtype": "int32"}, {"name": "Postprocessor/BatchMultiClassNonMaxSuppression/map/while/MultiClassNonMaxSuppression/stack_6/1", "shape": [], "dtype": "int32"}, {"name": "Postprocessor/BatchMultiClassNonMaxSuppression/map/while/MultiClassNonMaxSuppression/Reshape_6/shape", "shape": [1], "dtype": "int32"}, {"name": "Postprocessor/BatchMultiClassNonMaxSuppression/map/while/MultiClassNonMaxSuppression/non_max_suppression_padded_6/NonMaxSuppressionV4/max_output_size", "shape": [], "dtype": "int32"}, {"name": "Postprocessor/BatchMultiClassNonMaxSuppression/map/while/MultiClassNonMaxSuppression/non_max_suppression_padded_6/iou_threshold", "shape": [], "dtype": "float32"}, {"name": "Postprocessor/BatchMultiClassNonMaxSuppression/map/while/MultiClassNonMaxSuppression/non_max_suppression_padded_6/score_threshold", "shape": [], "dtype": "float32"}, {"name": "Postprocessor/BatchMultiClassNonMaxSuppression/map/while/MultiClassNonMaxSuppression/Gather_6/GatherV2_1/axis", "shape": [], "dtype": "int32"}, {"name": "Postprocessor/BatchMultiClassNonMaxSuppression/map/while/MultiClassNonMaxSuppression/mul_6", "shape": [100], "dtype": "float32"}, {"name": "Postprocessor/BatchMultiClassNonMaxSuppression/map/while/MultiClassNonMaxSuppression/range_7", "shape": [100], "dtype": "int32"}, {"name": "Postprocessor/BatchMultiClassNonMaxSuppression/map/while/MultiClassNonMaxSuppression/Slice_7/begin", "shape": [2], "dtype": "int32"}, {"name": "Postprocessor/BatchMultiClassNonMaxSuppression/map/while/MultiClassNonMaxSuppression/stack_7/1", "shape": [], "dtype": "int32"}, {"name": "Postprocessor/BatchMultiClassNonMaxSuppression/map/while/MultiClassNonMaxSuppression/Reshape_7/shape", "shape": [1], "dtype": "int32"}, {"name": "Postprocessor/BatchMultiClassNonMaxSuppression/map/while/MultiClassNonMaxSuppression/non_max_suppression_padded_7/NonMaxSuppressionV4/max_output_size", "shape": [], "dtype": "int32"}, {"name": "Postprocessor/BatchMultiClassNonMaxSuppression/map/while/MultiClassNonMaxSuppression/non_max_suppression_padded_7/iou_threshold", "shape": [], "dtype": "float32"}, {"name": "Postprocessor/BatchMultiClassNonMaxSuppression/map/while/MultiClassNonMaxSuppression/non_max_suppression_padded_7/score_threshold", "shape": [], "dtype": "float32"}, {"name": "Postprocessor/BatchMultiClassNonMaxSuppression/map/while/MultiClassNonMaxSuppression/Gather_7/GatherV2_1/axis", "shape": [], "dtype": "int32"}, {"name": "Postprocessor/BatchMultiClassNonMaxSuppression/map/while/MultiClassNonMaxSuppression/mul_7", "shape": [100], "dtype": "float32"}, {"name": "Postprocessor/BatchMultiClassNonMaxSuppression/map/while/MultiClassNonMaxSuppression/range_8", "shape": [100], "dtype": "int32"}, {"name": "Postprocessor/BatchMultiClassNonMaxSuppression/map/while/MultiClassNonMaxSuppression/Slice_8/begin", "shape": [2], "dtype": "int32"}, {"name": "Postprocessor/BatchMultiClassNonMaxSuppression/map/while/MultiClassNonMaxSuppression/stack_8/1", "shape": [], "dtype": "int32"}, {"name": "Postprocessor/BatchMultiClassNonMaxSuppression/map/while/MultiClassNonMaxSuppression/Reshape_8/shape", "shape": [1], "dtype": "int32"}, {"name": "Postprocessor/BatchMultiClassNonMaxSuppression/map/while/MultiClassNonMaxSuppression/non_max_suppression_padded_8/NonMaxSuppressionV4/max_output_size", "shape": [], "dtype": "int32"}, {"name": "Postprocessor/BatchMultiClassNonMaxSuppression/map/while/MultiClassNonMaxSuppression/non_max_suppression_padded_8/iou_threshold", "shape": [], "dtype": "float32"}, {"name": "Postprocessor/BatchMultiClassNonMaxSuppression/map/while/MultiClassNonMaxSuppression/non_max_suppression_padded_8/score_threshold", "shape": [], "dtype": "float32"}, {"name": "Postprocessor/BatchMultiClassNonMaxSuppression/map/while/MultiClassNonMaxSuppression/Gather_8/GatherV2_1/axis", "shape": [], "dtype": "int32"}, {"name": "Postprocessor/BatchMultiClassNonMaxSuppression/map/while/MultiClassNonMaxSuppression/mul_8", "shape": [100], "dtype": "float32"}, {"name": "Postprocessor/BatchMultiClassNonMaxSuppression/map/while/MultiClassNonMaxSuppression/range_9", "shape": [100], "dtype": "int32"}, {"name": "Postprocessor/BatchMultiClassNonMaxSuppression/map/while/MultiClassNonMaxSuppression/Slice_9/begin", "shape": [2], "dtype": "int32"}, {"name": "Postprocessor/BatchMultiClassNonMaxSuppression/map/while/MultiClassNonMaxSuppression/stack_9/1", "shape": [], "dtype": "int32"}, {"name": "Postprocessor/BatchMultiClassNonMaxSuppression/map/while/MultiClassNonMaxSuppression/Reshape_9/shape", "shape": [1], "dtype": "int32"}, {"name": "Postprocessor/BatchMultiClassNonMaxSuppression/map/while/MultiClassNonMaxSuppression/non_max_suppression_padded_9/NonMaxSuppressionV4/max_output_size", "shape": [], "dtype": "int32"}, {"name": "Postprocessor/BatchMultiClassNonMaxSuppression/map/while/MultiClassNonMaxSuppression/non_max_suppression_padded_9/iou_threshold", "shape": [], "dtype": "float32"}, {"name": "Postprocessor/BatchMultiClassNonMaxSuppression/map/while/MultiClassNonMaxSuppression/non_max_suppression_padded_9/score_threshold", "shape": [], "dtype": "float32"}, {"name": "Postprocessor/BatchMultiClassNonMaxSuppression/map/while/MultiClassNonMaxSuppression/Gather_9/GatherV2_1/axis", "shape": [], "dtype": "int32"}, {"name": "Postprocessor/BatchMultiClassNonMaxSuppression/map/while/MultiClassNonMaxSuppression/mul_9", "shape": [100], "dtype": "float32"}, {"name": "Postprocessor/BatchMultiClassNonMaxSuppression/map/while/MultiClassNonMaxSuppression/range_10", "shape": [100], "dtype": "int32"}, {"name": "Postprocessor/BatchMultiClassNonMaxSuppression/map/while/MultiClassNonMaxSuppression/Slice_10/begin", "shape": [2], "dtype": "int32"}, {"name": "Postprocessor/BatchMultiClassNonMaxSuppression/map/while/MultiClassNonMaxSuppression/stack_10/1", "shape": [], "dtype": "int32"}, {"name": "Postprocessor/BatchMultiClassNonMaxSuppression/map/while/MultiClassNonMaxSuppression/Reshape_10/shape", "shape": [1], "dtype": "int32"}, {"name": "Postprocessor/BatchMultiClassNonMaxSuppression/map/while/MultiClassNonMaxSuppression/non_max_suppression_padded_10/NonMaxSuppressionV4/max_output_size", "shape": [], "dtype": "int32"}, {"name": "Postprocessor/BatchMultiClassNonMaxSuppression/map/while/MultiClassNonMaxSuppression/non_max_suppression_padded_10/iou_threshold", "shape": [], "dtype": "float32"}, {"name": "Postprocessor/BatchMultiClassNonMaxSuppression/map/while/MultiClassNonMaxSuppression/non_max_suppression_padded_10/score_threshold", "shape": [], "dtype": "float32"}, {"name": "Postprocessor/BatchMultiClassNonMaxSuppression/map/while/MultiClassNonMaxSuppression/Gather_10/GatherV2_1/axis", "shape": [], "dtype": "int32"}, {"name": "Postprocessor/BatchMultiClassNonMaxSuppression/map/while/MultiClassNonMaxSuppression/mul_10", "shape": [100], "dtype": "float32"}, {"name": "Postprocessor/BatchMultiClassNonMaxSuppression/map/while/MultiClassNonMaxSuppression/range_11", "shape": [100], "dtype": "int32"}, {"name": "Postprocessor/BatchMultiClassNonMaxSuppression/map/while/MultiClassNonMaxSuppression/Slice_11/begin", "shape": [2], "dtype": "int32"}, {"name": "Postprocessor/BatchMultiClassNonMaxSuppression/map/while/MultiClassNonMaxSuppression/stack_11/1", "shape": [], "dtype": "int32"}, {"name": "Postprocessor/BatchMultiClassNonMaxSuppression/map/while/MultiClassNonMaxSuppression/Reshape_11/shape", "shape": [1], "dtype": "int32"}, {"name": "Postprocessor/BatchMultiClassNonMaxSuppression/map/while/MultiClassNonMaxSuppression/non_max_suppression_padded_11/NonMaxSuppressionV4/max_output_size", "shape": [], "dtype": "int32"}, {"name": "Postprocessor/BatchMultiClassNonMaxSuppression/map/while/MultiClassNonMaxSuppression/non_max_suppression_padded_11/iou_threshold", "shape": [], "dtype": "float32"}, {"name": "Postprocessor/BatchMultiClassNonMaxSuppression/map/while/MultiClassNonMaxSuppression/non_max_suppression_padded_11/score_threshold", "shape": [], "dtype": "float32"}, {"name": "Postprocessor/BatchMultiClassNonMaxSuppression/map/while/MultiClassNonMaxSuppression/Gather_11/GatherV2_1/axis", "shape": [], "dtype": "int32"}, {"name": "Postprocessor/BatchMultiClassNonMaxSuppression/map/while/MultiClassNonMaxSuppression/mul_11", "shape": [100], "dtype": "float32"}, {"name": "Postprocessor/BatchMultiClassNonMaxSuppression/map/while/MultiClassNonMaxSuppression/range_12", "shape": [100], "dtype": "int32"}, {"name": "Postprocessor/BatchMultiClassNonMaxSuppression/map/while/MultiClassNonMaxSuppression/Slice_12/begin", "shape": [2], "dtype": "int32"}, {"name": "Postprocessor/BatchMultiClassNonMaxSuppression/map/while/MultiClassNonMaxSuppression/stack_12/1", "shape": [], "dtype": "int32"}, {"name": "Postprocessor/BatchMultiClassNonMaxSuppression/map/while/MultiClassNonMaxSuppression/Reshape_12/shape", "shape": [1], "dtype": "int32"}, {"name": "Postprocessor/BatchMultiClassNonMaxSuppression/map/while/MultiClassNonMaxSuppression/non_max_suppression_padded_12/NonMaxSuppressionV4/max_output_size", "shape": [], "dtype": "int32"}, {"name": "Postprocessor/BatchMultiClassNonMaxSuppression/map/while/MultiClassNonMaxSuppression/non_max_suppression_padded_12/iou_threshold", "shape": [], "dtype": "float32"}, {"name": "Postprocessor/BatchMultiClassNonMaxSuppression/map/while/MultiClassNonMaxSuppression/non_max_suppression_padded_12/score_threshold", "shape": [], "dtype": "float32"}, {"name": "Postprocessor/BatchMultiClassNonMaxSuppression/map/while/MultiClassNonMaxSuppression/Gather_12/GatherV2_1/axis", "shape": [], "dtype": "int32"}, {"name": "Postprocessor/BatchMultiClassNonMaxSuppression/map/while/MultiClassNonMaxSuppression/mul_12", "shape": [100], "dtype": "float32"}, {"name": "Postprocessor/BatchMultiClassNonMaxSuppression/map/while/MultiClassNonMaxSuppression/range_13", "shape": [100], "dtype": "int32"}, {"name": "Postprocessor/BatchMultiClassNonMaxSuppression/map/while/MultiClassNonMaxSuppression/Slice_13/begin", "shape": [2], "dtype": "int32"}, {"name": "Postprocessor/BatchMultiClassNonMaxSuppression/map/while/MultiClassNonMaxSuppression/stack_13/1", "shape": [], "dtype": "int32"}, {"name": "Postprocessor/BatchMultiClassNonMaxSuppression/map/while/MultiClassNonMaxSuppression/Reshape_13/shape", "shape": [1], "dtype": "int32"}, {"name": "Postprocessor/BatchMultiClassNonMaxSuppression/map/while/MultiClassNonMaxSuppression/non_max_suppression_padded_13/NonMaxSuppressionV4/max_output_size", "shape": [], "dtype": "int32"}, {"name": "Postprocessor/BatchMultiClassNonMaxSuppression/map/while/MultiClassNonMaxSuppression/non_max_suppression_padded_13/iou_threshold", "shape": [], "dtype": "float32"}, {"name": "Postprocessor/BatchMultiClassNonMaxSuppression/map/while/MultiClassNonMaxSuppression/non_max_suppression_padded_13/score_threshold", "shape": [], "dtype": "float32"}, {"name": "Postprocessor/BatchMultiClassNonMaxSuppression/map/while/MultiClassNonMaxSuppression/Gather_13/GatherV2_1/axis", "shape": [], "dtype": "int32"}, {"name": "Postprocessor/BatchMultiClassNonMaxSuppression/map/while/MultiClassNonMaxSuppression/mul_13", "shape": [100], "dtype": "float32"}, {"name": "Postprocessor/BatchMultiClassNonMaxSuppression/map/while/MultiClassNonMaxSuppression/range_14", "shape": [100], "dtype": "int32"}, {"name": "Postprocessor/BatchMultiClassNonMaxSuppression/map/while/MultiClassNonMaxSuppression/Slice_14/begin", "shape": [2], "dtype": "int32"}, {"name": "Postprocessor/BatchMultiClassNonMaxSuppression/map/while/MultiClassNonMaxSuppression/stack_14/1", "shape": [], "dtype": "int32"}, {"name": "Postprocessor/BatchMultiClassNonMaxSuppression/map/while/MultiClassNonMaxSuppression/Reshape_14/shape", "shape": [1], "dtype": "int32"}, {"name": "Postprocessor/BatchMultiClassNonMaxSuppression/map/while/MultiClassNonMaxSuppression/non_max_suppression_padded_14/NonMaxSuppressionV4/max_output_size", "shape": [], "dtype": "int32"}, {"name": "Postprocessor/BatchMultiClassNonMaxSuppression/map/while/MultiClassNonMaxSuppression/non_max_suppression_padded_14/iou_threshold", "shape": [], "dtype": "float32"}, {"name": "Postprocessor/BatchMultiClassNonMaxSuppression/map/while/MultiClassNonMaxSuppression/non_max_suppression_padded_14/score_threshold", "shape": [], "dtype": "float32"}, {"name": "Postprocessor/BatchMultiClassNonMaxSuppression/map/while/MultiClassNonMaxSuppression/Gather_14/GatherV2_1/axis", "shape": [], "dtype": "int32"}, {"name": "Postprocessor/BatchMultiClassNonMaxSuppression/map/while/MultiClassNonMaxSuppression/mul_14", "shape": [100], "dtype": "float32"}, {"name": "Postprocessor/BatchMultiClassNonMaxSuppression/map/while/MultiClassNonMaxSuppression/range_15", "shape": [100], "dtype": "int32"}, {"name": "Postprocessor/BatchMultiClassNonMaxSuppression/map/while/MultiClassNonMaxSuppression/Slice_15/begin", "shape": [2], "dtype": "int32"}, {"name": "Postprocessor/BatchMultiClassNonMaxSuppression/map/while/MultiClassNonMaxSuppression/stack_15/1", "shape": [], "dtype": "int32"}, {"name": "Postprocessor/BatchMultiClassNonMaxSuppression/map/while/MultiClassNonMaxSuppression/Reshape_15/shape", "shape": [1], "dtype": "int32"}, {"name": "Postprocessor/BatchMultiClassNonMaxSuppression/map/while/MultiClassNonMaxSuppression/non_max_suppression_padded_15/NonMaxSuppressionV4/max_output_size", "shape": [], "dtype": "int32"}, {"name": "Postprocessor/BatchMultiClassNonMaxSuppression/map/while/MultiClassNonMaxSuppression/non_max_suppression_padded_15/iou_threshold", "shape": [], "dtype": "float32"}, {"name": "Postprocessor/BatchMultiClassNonMaxSuppression/map/while/MultiClassNonMaxSuppression/non_max_suppression_padded_15/score_threshold", "shape": [], "dtype": "float32"}, {"name": "Postprocessor/BatchMultiClassNonMaxSuppression/map/while/MultiClassNonMaxSuppression/Gather_15/GatherV2_1/axis", "shape": [], "dtype": "int32"}, {"name": "Postprocessor/BatchMultiClassNonMaxSuppression/map/while/MultiClassNonMaxSuppression/mul_15", "shape": [100], "dtype": "float32"}, {"name": "Postprocessor/BatchMultiClassNonMaxSuppression/map/while/MultiClassNonMaxSuppression/range_16", "shape": [100], "dtype": "int32"}, {"name": "Postprocessor/BatchMultiClassNonMaxSuppression/map/while/MultiClassNonMaxSuppression/Slice_16/begin", "shape": [2], "dtype": "int32"}, {"name": "Postprocessor/BatchMultiClassNonMaxSuppression/map/while/MultiClassNonMaxSuppression/stack_16/1", "shape": [], "dtype": "int32"}, {"name": "Postprocessor/BatchMultiClassNonMaxSuppression/map/while/MultiClassNonMaxSuppression/Reshape_16/shape", "shape": [1], "dtype": "int32"}, {"name": "Postprocessor/BatchMultiClassNonMaxSuppression/map/while/MultiClassNonMaxSuppression/non_max_suppression_padded_16/NonMaxSuppressionV4/max_output_size", "shape": [], "dtype": "int32"}, {"name": "Postprocessor/BatchMultiClassNonMaxSuppression/map/while/MultiClassNonMaxSuppression/non_max_suppression_padded_16/iou_threshold", "shape": [], "dtype": "float32"}, {"name": "Postprocessor/BatchMultiClassNonMaxSuppression/map/while/MultiClassNonMaxSuppression/non_max_suppression_padded_16/score_threshold", "shape": [], "dtype": "float32"}, {"name": "Postprocessor/BatchMultiClassNonMaxSuppression/map/while/MultiClassNonMaxSuppression/Gather_16/GatherV2_1/axis", "shape": [], "dtype": "int32"}, {"name": "Postprocessor/BatchMultiClassNonMaxSuppression/map/while/MultiClassNonMaxSuppression/mul_16", "shape": [100], "dtype": "float32"}, {"name": "Postprocessor/BatchMultiClassNonMaxSuppression/map/while/MultiClassNonMaxSuppression/range_17", "shape": [100], "dtype": "int32"}, {"name": "Postprocessor/BatchMultiClassNonMaxSuppression/map/while/MultiClassNonMaxSuppression/Slice_17/begin", "shape": [2], "dtype": "int32"}, {"name": "Postprocessor/BatchMultiClassNonMaxSuppression/map/while/MultiClassNonMaxSuppression/stack_17/1", "shape": [], "dtype": "int32"}, {"name": "Postprocessor/BatchMultiClassNonMaxSuppression/map/while/MultiClassNonMaxSuppression/Reshape_17/shape", "shape": [1], "dtype": "int32"}, {"name": "Postprocessor/BatchMultiClassNonMaxSuppression/map/while/MultiClassNonMaxSuppression/non_max_suppression_padded_17/NonMaxSuppressionV4/max_output_size", "shape": [], "dtype": "int32"}, {"name": "Postprocessor/BatchMultiClassNonMaxSuppression/map/while/MultiClassNonMaxSuppression/non_max_suppression_padded_17/iou_threshold", "shape": [], "dtype": "float32"}, {"name": "Postprocessor/BatchMultiClassNonMaxSuppression/map/while/MultiClassNonMaxSuppression/non_max_suppression_padded_17/score_threshold", "shape": [], "dtype": "float32"}, {"name": "Postprocessor/BatchMultiClassNonMaxSuppression/map/while/MultiClassNonMaxSuppression/Gather_17/GatherV2_1/axis", "shape": [], "dtype": "int32"}, {"name": "Postprocessor/BatchMultiClassNonMaxSuppression/map/while/MultiClassNonMaxSuppression/mul_17", "shape": [100], "dtype": "float32"}, {"name": "Postprocessor/BatchMultiClassNonMaxSuppression/map/while/MultiClassNonMaxSuppression/range_18", "shape": [100], "dtype": "int32"}, {"name": "Postprocessor/BatchMultiClassNonMaxSuppression/map/while/MultiClassNonMaxSuppression/Slice_18/begin", "shape": [2], "dtype": "int32"}, {"name": "Postprocessor/BatchMultiClassNonMaxSuppression/map/while/MultiClassNonMaxSuppression/stack_18/1", "shape": [], "dtype": "int32"}, {"name": "Postprocessor/BatchMultiClassNonMaxSuppression/map/while/MultiClassNonMaxSuppression/Reshape_18/shape", "shape": [1], "dtype": "int32"}, {"name": "Postprocessor/BatchMultiClassNonMaxSuppression/map/while/MultiClassNonMaxSuppression/non_max_suppression_padded_18/NonMaxSuppressionV4/max_output_size", "shape": [], "dtype": "int32"}, {"name": "Postprocessor/BatchMultiClassNonMaxSuppression/map/while/MultiClassNonMaxSuppression/non_max_suppression_padded_18/iou_threshold", "shape": [], "dtype": "float32"}, {"name": "Postprocessor/BatchMultiClassNonMaxSuppression/map/while/MultiClassNonMaxSuppression/non_max_suppression_padded_18/score_threshold", "shape": [], "dtype": "float32"}, {"name": "Postprocessor/BatchMultiClassNonMaxSuppression/map/while/MultiClassNonMaxSuppression/Gather_18/GatherV2_1/axis", "shape": [], "dtype": "int32"}, {"name": "Postprocessor/BatchMultiClassNonMaxSuppression/map/while/MultiClassNonMaxSuppression/mul_18", "shape": [100], "dtype": "float32"}, {"name": "Postprocessor/BatchMultiClassNonMaxSuppression/map/while/MultiClassNonMaxSuppression/range_19", "shape": [100], "dtype": "int32"}, {"name": "Postprocessor/BatchMultiClassNonMaxSuppression/map/while/MultiClassNonMaxSuppression/Slice_19/begin", "shape": [2], "dtype": "int32"}, {"name": "Postprocessor/BatchMultiClassNonMaxSuppression/map/while/MultiClassNonMaxSuppression/stack_19/1", "shape": [], "dtype": "int32"}, {"name": "Postprocessor/BatchMultiClassNonMaxSuppression/map/while/MultiClassNonMaxSuppression/Reshape_19/shape", "shape": [1], "dtype": "int32"}, {"name": "Postprocessor/BatchMultiClassNonMaxSuppression/map/while/MultiClassNonMaxSuppression/non_max_suppression_padded_19/NonMaxSuppressionV4/max_output_size", "shape": [], "dtype": "int32"}, {"name": "Postprocessor/BatchMultiClassNonMaxSuppression/map/while/MultiClassNonMaxSuppression/non_max_suppression_padded_19/iou_threshold", "shape": [], "dtype": "float32"}, {"name": "Postprocessor/BatchMultiClassNonMaxSuppression/map/while/MultiClassNonMaxSuppression/non_max_suppression_padded_19/score_threshold", "shape": [], "dtype": "float32"}, {"name": "Postprocessor/BatchMultiClassNonMaxSuppression/map/while/MultiClassNonMaxSuppression/Gather_19/GatherV2_1/axis", "shape": [], "dtype": "int32"}, {"name": "Postprocessor/BatchMultiClassNonMaxSuppression/map/while/MultiClassNonMaxSuppression/mul_19", "shape": [100], "dtype": "float32"}, {"name": "Postprocessor/BatchMultiClassNonMaxSuppression/map/while/MultiClassNonMaxSuppression/range_20", "shape": [100], "dtype": "int32"}, {"name": "Postprocessor/BatchMultiClassNonMaxSuppression/map/while/MultiClassNonMaxSuppression/Slice_20/begin", "shape": [2], "dtype": "int32"}, {"name": "Postprocessor/BatchMultiClassNonMaxSuppression/map/while/MultiClassNonMaxSuppression/stack_20/1", "shape": [], "dtype": "int32"}, {"name": "Postprocessor/BatchMultiClassNonMaxSuppression/map/while/MultiClassNonMaxSuppression/Reshape_20/shape", "shape": [1], "dtype": "int32"}, {"name": "Postprocessor/BatchMultiClassNonMaxSuppression/map/while/MultiClassNonMaxSuppression/non_max_suppression_padded_20/NonMaxSuppressionV4/max_output_size", "shape": [], "dtype": "int32"}, {"name": "Postprocessor/BatchMultiClassNonMaxSuppression/map/while/MultiClassNonMaxSuppression/non_max_suppression_padded_20/iou_threshold", "shape": [], "dtype": "float32"}, {"name": "Postprocessor/BatchMultiClassNonMaxSuppression/map/while/MultiClassNonMaxSuppression/non_max_suppression_padded_20/score_threshold", "shape": [], "dtype": "float32"}, {"name": "Postprocessor/BatchMultiClassNonMaxSuppression/map/while/MultiClassNonMaxSuppression/Gather_20/GatherV2_1/axis", "shape": [], "dtype": "int32"}, {"name": "Postprocessor/BatchMultiClassNonMaxSuppression/map/while/MultiClassNonMaxSuppression/mul_20", "shape": [100], "dtype": "float32"}, {"name": "Postprocessor/BatchMultiClassNonMaxSuppression/map/while/MultiClassNonMaxSuppression/range_21", "shape": [100], "dtype": "int32"}, {"name": "Postprocessor/BatchMultiClassNonMaxSuppression/map/while/MultiClassNonMaxSuppression/Slice_21/begin", "shape": [2], "dtype": "int32"}, {"name": "Postprocessor/BatchMultiClassNonMaxSuppression/map/while/MultiClassNonMaxSuppression/stack_21/1", "shape": [], "dtype": "int32"}, {"name": "Postprocessor/BatchMultiClassNonMaxSuppression/map/while/MultiClassNonMaxSuppression/Reshape_21/shape", "shape": [1], "dtype": "int32"}, {"name": "Postprocessor/BatchMultiClassNonMaxSuppression/map/while/MultiClassNonMaxSuppression/non_max_suppression_padded_21/NonMaxSuppressionV4/max_output_size", "shape": [], "dtype": "int32"}, {"name": "Postprocessor/BatchMultiClassNonMaxSuppression/map/while/MultiClassNonMaxSuppression/non_max_suppression_padded_21/iou_threshold", "shape": [], "dtype": "float32"}, {"name": "Postprocessor/BatchMultiClassNonMaxSuppression/map/while/MultiClassNonMaxSuppression/non_max_suppression_padded_21/score_threshold", "shape": [], "dtype": "float32"}, {"name": "Postprocessor/BatchMultiClassNonMaxSuppression/map/while/MultiClassNonMaxSuppression/Gather_21/GatherV2_1/axis", "shape": [], "dtype": "int32"}, {"name": "Postprocessor/BatchMultiClassNonMaxSuppression/map/while/MultiClassNonMaxSuppression/mul_21", "shape": [100], "dtype": "float32"}, {"name": "Postprocessor/BatchMultiClassNonMaxSuppression/map/while/MultiClassNonMaxSuppression/range_22", "shape": [100], "dtype": "int32"}, {"name": "Postprocessor/BatchMultiClassNonMaxSuppression/map/while/MultiClassNonMaxSuppression/Slice_22/begin", "shape": [2], "dtype": "int32"}, {"name": "Postprocessor/BatchMultiClassNonMaxSuppression/map/while/MultiClassNonMaxSuppression/stack_22/1", "shape": [], "dtype": "int32"}, {"name": "Postprocessor/BatchMultiClassNonMaxSuppression/map/while/MultiClassNonMaxSuppression/Reshape_22/shape", "shape": [1], "dtype": "int32"}, {"name": "Postprocessor/BatchMultiClassNonMaxSuppression/map/while/MultiClassNonMaxSuppression/non_max_suppression_padded_22/NonMaxSuppressionV4/max_output_size", "shape": [], "dtype": "int32"}, {"name": "Postprocessor/BatchMultiClassNonMaxSuppression/map/while/MultiClassNonMaxSuppression/non_max_suppression_padded_22/iou_threshold", "shape": [], "dtype": "float32"}, {"name": "Postprocessor/BatchMultiClassNonMaxSuppression/map/while/MultiClassNonMaxSuppression/non_max_suppression_padded_22/score_threshold", "shape": [], "dtype": "float32"}, {"name": "Postprocessor/BatchMultiClassNonMaxSuppression/map/while/MultiClassNonMaxSuppression/Gather_22/GatherV2_1/axis", "shape": [], "dtype": "int32"}, {"name": "Postprocessor/BatchMultiClassNonMaxSuppression/map/while/MultiClassNonMaxSuppression/mul_22", "shape": [100], "dtype": "float32"}, {"name": "Postprocessor/BatchMultiClassNonMaxSuppression/map/while/MultiClassNonMaxSuppression/range_23", "shape": [100], "dtype": "int32"}, {"name": "Postprocessor/BatchMultiClassNonMaxSuppression/map/while/MultiClassNonMaxSuppression/Slice_23/begin", "shape": [2], "dtype": "int32"}, {"name": "Postprocessor/BatchMultiClassNonMaxSuppression/map/while/MultiClassNonMaxSuppression/stack_23/1", "shape": [], "dtype": "int32"}, {"name": "Postprocessor/BatchMultiClassNonMaxSuppression/map/while/MultiClassNonMaxSuppression/Reshape_23/shape", "shape": [1], "dtype": "int32"}, {"name": "Postprocessor/BatchMultiClassNonMaxSuppression/map/while/MultiClassNonMaxSuppression/non_max_suppression_padded_23/NonMaxSuppressionV4/max_output_size", "shape": [], "dtype": "int32"}, {"name": "Postprocessor/BatchMultiClassNonMaxSuppression/map/while/MultiClassNonMaxSuppression/non_max_suppression_padded_23/iou_threshold", "shape": [], "dtype": "float32"}, {"name": "Postprocessor/BatchMultiClassNonMaxSuppression/map/while/MultiClassNonMaxSuppression/non_max_suppression_padded_23/score_threshold", "shape": [], "dtype": "float32"}, {"name": "Postprocessor/BatchMultiClassNonMaxSuppression/map/while/MultiClassNonMaxSuppression/Gather_23/GatherV2_1/axis", "shape": [], "dtype": "int32"}, {"name": "Postprocessor/BatchMultiClassNonMaxSuppression/map/while/MultiClassNonMaxSuppression/mul_23", "shape": [100], "dtype": "float32"}, {"name": "Postprocessor/BatchMultiClassNonMaxSuppression/map/while/MultiClassNonMaxSuppression/range_24", "shape": [100], "dtype": "int32"}, {"name": "Postprocessor/BatchMultiClassNonMaxSuppression/map/while/MultiClassNonMaxSuppression/Slice_24/begin", "shape": [2], "dtype": "int32"}, {"name": "Postprocessor/BatchMultiClassNonMaxSuppression/map/while/MultiClassNonMaxSuppression/stack_24/1", "shape": [], "dtype": "int32"}, {"name": "Postprocessor/BatchMultiClassNonMaxSuppression/map/while/MultiClassNonMaxSuppression/Reshape_24/shape", "shape": [1], "dtype": "int32"}, {"name": "Postprocessor/BatchMultiClassNonMaxSuppression/map/while/MultiClassNonMaxSuppression/non_max_suppression_padded_24/NonMaxSuppressionV4/max_output_size", "shape": [], "dtype": "int32"}, {"name": "Postprocessor/BatchMultiClassNonMaxSuppression/map/while/MultiClassNonMaxSuppression/non_max_suppression_padded_24/iou_threshold", "shape": [], "dtype": "float32"}, {"name": "Postprocessor/BatchMultiClassNonMaxSuppression/map/while/MultiClassNonMaxSuppression/non_max_suppression_padded_24/score_threshold", "shape": [], "dtype": "float32"}, {"name": "Postprocessor/BatchMultiClassNonMaxSuppression/map/while/MultiClassNonMaxSuppression/Gather_24/GatherV2_1/axis", "shape": [], "dtype": "int32"}, {"name": "Postprocessor/BatchMultiClassNonMaxSuppression/map/while/MultiClassNonMaxSuppression/mul_24", "shape": [100], "dtype": "float32"}, {"name": "Postprocessor/BatchMultiClassNonMaxSuppression/map/while/MultiClassNonMaxSuppression/range_25", "shape": [100], "dtype": "int32"}, {"name": "Postprocessor/BatchMultiClassNonMaxSuppression/map/while/MultiClassNonMaxSuppression/Slice_25/begin", "shape": [2], "dtype": "int32"}, {"name": "Postprocessor/BatchMultiClassNonMaxSuppression/map/while/MultiClassNonMaxSuppression/stack_25/1", "shape": [], "dtype": "int32"}, {"name": "Postprocessor/BatchMultiClassNonMaxSuppression/map/while/MultiClassNonMaxSuppression/Reshape_25/shape", "shape": [1], "dtype": "int32"}, {"name": "Postprocessor/BatchMultiClassNonMaxSuppression/map/while/MultiClassNonMaxSuppression/non_max_suppression_padded_25/NonMaxSuppressionV4/max_output_size", "shape": [], "dtype": "int32"}, {"name": "Postprocessor/BatchMultiClassNonMaxSuppression/map/while/MultiClassNonMaxSuppression/non_max_suppression_padded_25/iou_threshold", "shape": [], "dtype": "float32"}, {"name": "Postprocessor/BatchMultiClassNonMaxSuppression/map/while/MultiClassNonMaxSuppression/non_max_suppression_padded_25/score_threshold", "shape": [], "dtype": "float32"}, {"name": "Postprocessor/BatchMultiClassNonMaxSuppression/map/while/MultiClassNonMaxSuppression/Gather_25/GatherV2_1/axis", "shape": [], "dtype": "int32"}, {"name": "Postprocessor/BatchMultiClassNonMaxSuppression/map/while/MultiClassNonMaxSuppression/mul_25", "shape": [100], "dtype": "float32"}, {"name": "Postprocessor/BatchMultiClassNonMaxSuppression/map/while/MultiClassNonMaxSuppression/range_26", "shape": [100], "dtype": "int32"}, {"name": "Postprocessor/BatchMultiClassNonMaxSuppression/map/while/MultiClassNonMaxSuppression/Slice_26/begin", "shape": [2], "dtype": "int32"}, {"name": "Postprocessor/BatchMultiClassNonMaxSuppression/map/while/MultiClassNonMaxSuppression/stack_26/1", "shape": [], "dtype": "int32"}, {"name": "Postprocessor/BatchMultiClassNonMaxSuppression/map/while/MultiClassNonMaxSuppression/Reshape_26/shape", "shape": [1], "dtype": "int32"}, {"name": "Postprocessor/BatchMultiClassNonMaxSuppression/map/while/MultiClassNonMaxSuppression/non_max_suppression_padded_26/NonMaxSuppressionV4/max_output_size", "shape": [], "dtype": "int32"}, {"name": "Postprocessor/BatchMultiClassNonMaxSuppression/map/while/MultiClassNonMaxSuppression/non_max_suppression_padded_26/iou_threshold", "shape": [], "dtype": "float32"}, {"name": "Postprocessor/BatchMultiClassNonMaxSuppression/map/while/MultiClassNonMaxSuppression/non_max_suppression_padded_26/score_threshold", "shape": [], "dtype": "float32"}, {"name": "Postprocessor/BatchMultiClassNonMaxSuppression/map/while/MultiClassNonMaxSuppression/Gather_26/GatherV2_1/axis", "shape": [], "dtype": "int32"}, {"name": "Postprocessor/BatchMultiClassNonMaxSuppression/map/while/MultiClassNonMaxSuppression/mul_26", "shape": [100], "dtype": "float32"}, {"name": "Postprocessor/BatchMultiClassNonMaxSuppression/map/while/MultiClassNonMaxSuppression/range_27", "shape": [100], "dtype": "int32"}, {"name": "Postprocessor/BatchMultiClassNonMaxSuppression/map/while/MultiClassNonMaxSuppression/Slice_27/begin", "shape": [2], "dtype": "int32"}, {"name": "Postprocessor/BatchMultiClassNonMaxSuppression/map/while/MultiClassNonMaxSuppression/stack_27/1", "shape": [], "dtype": "int32"}, {"name": "Postprocessor/BatchMultiClassNonMaxSuppression/map/while/MultiClassNonMaxSuppression/Reshape_27/shape", "shape": [1], "dtype": "int32"}, {"name": "Postprocessor/BatchMultiClassNonMaxSuppression/map/while/MultiClassNonMaxSuppression/non_max_suppression_padded_27/NonMaxSuppressionV4/max_output_size", "shape": [], "dtype": "int32"}, {"name": "Postprocessor/BatchMultiClassNonMaxSuppression/map/while/MultiClassNonMaxSuppression/non_max_suppression_padded_27/iou_threshold", "shape": [], "dtype": "float32"}, {"name": "Postprocessor/BatchMultiClassNonMaxSuppression/map/while/MultiClassNonMaxSuppression/non_max_suppression_padded_27/score_threshold", "shape": [], "dtype": "float32"}, {"name": "Postprocessor/BatchMultiClassNonMaxSuppression/map/while/MultiClassNonMaxSuppression/Gather_27/GatherV2_1/axis", "shape": [], "dtype": "int32"}, {"name": "Postprocessor/BatchMultiClassNonMaxSuppression/map/while/MultiClassNonMaxSuppression/mul_27", "shape": [100], "dtype": "float32"}, {"name": "Postprocessor/BatchMultiClassNonMaxSuppression/map/while/MultiClassNonMaxSuppression/range_28", "shape": [100], "dtype": "int32"}, {"name": "Postprocessor/BatchMultiClassNonMaxSuppression/map/while/MultiClassNonMaxSuppression/Slice_28/begin", "shape": [2], "dtype": "int32"}, {"name": "Postprocessor/BatchMultiClassNonMaxSuppression/map/while/MultiClassNonMaxSuppression/stack_28/1", "shape": [], "dtype": "int32"}, {"name": "Postprocessor/BatchMultiClassNonMaxSuppression/map/while/MultiClassNonMaxSuppression/Reshape_28/shape", "shape": [1], "dtype": "int32"}, {"name": "Postprocessor/BatchMultiClassNonMaxSuppression/map/while/MultiClassNonMaxSuppression/non_max_suppression_padded_28/NonMaxSuppressionV4/max_output_size", "shape": [], "dtype": "int32"}, {"name": "Postprocessor/BatchMultiClassNonMaxSuppression/map/while/MultiClassNonMaxSuppression/non_max_suppression_padded_28/iou_threshold", "shape": [], "dtype": "float32"}, {"name": "Postprocessor/BatchMultiClassNonMaxSuppression/map/while/MultiClassNonMaxSuppression/non_max_suppression_padded_28/score_threshold", "shape": [], "dtype": "float32"}, {"name": "Postprocessor/BatchMultiClassNonMaxSuppression/map/while/MultiClassNonMaxSuppression/Gather_28/GatherV2_1/axis", "shape": [], "dtype": "int32"}, {"name": "Postprocessor/BatchMultiClassNonMaxSuppression/map/while/MultiClassNonMaxSuppression/mul_28", "shape": [100], "dtype": "float32"}, {"name": "Postprocessor/BatchMultiClassNonMaxSuppression/map/while/MultiClassNonMaxSuppression/range_29", "shape": [100], "dtype": "int32"}, {"name": "Postprocessor/BatchMultiClassNonMaxSuppression/map/while/MultiClassNonMaxSuppression/Slice_29/begin", "shape": [2], "dtype": "int32"}, {"name": "Postprocessor/BatchMultiClassNonMaxSuppression/map/while/MultiClassNonMaxSuppression/stack_29/1", "shape": [], "dtype": "int32"}, {"name": "Postprocessor/BatchMultiClassNonMaxSuppression/map/while/MultiClassNonMaxSuppression/Reshape_29/shape", "shape": [1], "dtype": "int32"}, {"name": "Postprocessor/BatchMultiClassNonMaxSuppression/map/while/MultiClassNonMaxSuppression/non_max_suppression_padded_29/NonMaxSuppressionV4/max_output_size", "shape": [], "dtype": "int32"}, {"name": "Postprocessor/BatchMultiClassNonMaxSuppression/map/while/MultiClassNonMaxSuppression/non_max_suppression_padded_29/iou_threshold", "shape": [], "dtype": "float32"}, {"name": "Postprocessor/BatchMultiClassNonMaxSuppression/map/while/MultiClassNonMaxSuppression/non_max_suppression_padded_29/score_threshold", "shape": [], "dtype": "float32"}, {"name": "Postprocessor/BatchMultiClassNonMaxSuppression/map/while/MultiClassNonMaxSuppression/Gather_29/GatherV2_1/axis", "shape": [], "dtype": "int32"}, {"name": "Postprocessor/BatchMultiClassNonMaxSuppression/map/while/MultiClassNonMaxSuppression/mul_29", "shape": [100], "dtype": "float32"}, {"name": "Postprocessor/BatchMultiClassNonMaxSuppression/map/while/MultiClassNonMaxSuppression/range_30", "shape": [100], "dtype": "int32"}, {"name": "Postprocessor/BatchMultiClassNonMaxSuppression/map/while/MultiClassNonMaxSuppression/Slice_30/begin", "shape": [2], "dtype": "int32"}, {"name": "Postprocessor/BatchMultiClassNonMaxSuppression/map/while/MultiClassNonMaxSuppression/stack_30/1", "shape": [], "dtype": "int32"}, {"name": "Postprocessor/BatchMultiClassNonMaxSuppression/map/while/MultiClassNonMaxSuppression/Reshape_30/shape", "shape": [1], "dtype": "int32"}, {"name": "Postprocessor/BatchMultiClassNonMaxSuppression/map/while/MultiClassNonMaxSuppression/non_max_suppression_padded_30/NonMaxSuppressionV4/max_output_size", "shape": [], "dtype": "int32"}, {"name": "Postprocessor/BatchMultiClassNonMaxSuppression/map/while/MultiClassNonMaxSuppression/non_max_suppression_padded_30/iou_threshold", "shape": [], "dtype": "float32"}, {"name": "Postprocessor/BatchMultiClassNonMaxSuppression/map/while/MultiClassNonMaxSuppression/non_max_suppression_padded_30/score_threshold", "shape": [], "dtype": "float32"}, {"name": "Postprocessor/BatchMultiClassNonMaxSuppression/map/while/MultiClassNonMaxSuppression/Gather_30/GatherV2_1/axis", "shape": [], "dtype": "int32"}, {"name": "Postprocessor/BatchMultiClassNonMaxSuppression/map/while/MultiClassNonMaxSuppression/mul_30", "shape": [100], "dtype": "float32"}, {"name": "Postprocessor/BatchMultiClassNonMaxSuppression/map/while/MultiClassNonMaxSuppression/range_31", "shape": [100], "dtype": "int32"}, {"name": "Postprocessor/BatchMultiClassNonMaxSuppression/map/while/MultiClassNonMaxSuppression/Slice_31/begin", "shape": [2], "dtype": "int32"}, {"name": "Postprocessor/BatchMultiClassNonMaxSuppression/map/while/MultiClassNonMaxSuppression/stack_31/1", "shape": [], "dtype": "int32"}, {"name": "Postprocessor/BatchMultiClassNonMaxSuppression/map/while/MultiClassNonMaxSuppression/Reshape_31/shape", "shape": [1], "dtype": "int32"}, {"name": "Postprocessor/BatchMultiClassNonMaxSuppression/map/while/MultiClassNonMaxSuppression/non_max_suppression_padded_31/NonMaxSuppressionV4/max_output_size", "shape": [], "dtype": "int32"}, {"name": "Postprocessor/BatchMultiClassNonMaxSuppression/map/while/MultiClassNonMaxSuppression/non_max_suppression_padded_31/iou_threshold", "shape": [], "dtype": "float32"}, {"name": "Postprocessor/BatchMultiClassNonMaxSuppression/map/while/MultiClassNonMaxSuppression/non_max_suppression_padded_31/score_threshold", "shape": [], "dtype": "float32"}, {"name": "Postprocessor/BatchMultiClassNonMaxSuppression/map/while/MultiClassNonMaxSuppression/Gather_31/GatherV2_1/axis", "shape": [], "dtype": "int32"}, {"name": "Postprocessor/BatchMultiClassNonMaxSuppression/map/while/MultiClassNonMaxSuppression/mul_31", "shape": [100], "dtype": "float32"}, {"name": "Postprocessor/BatchMultiClassNonMaxSuppression/map/while/MultiClassNonMaxSuppression/range_32", "shape": [100], "dtype": "int32"}, {"name": "Postprocessor/BatchMultiClassNonMaxSuppression/map/while/MultiClassNonMaxSuppression/Slice_32/begin", "shape": [2], "dtype": "int32"}, {"name": "Postprocessor/BatchMultiClassNonMaxSuppression/map/while/MultiClassNonMaxSuppression/stack_32/1", "shape": [], "dtype": "int32"}, {"name": "Postprocessor/BatchMultiClassNonMaxSuppression/map/while/MultiClassNonMaxSuppression/Reshape_32/shape", "shape": [1], "dtype": "int32"}, {"name": "Postprocessor/BatchMultiClassNonMaxSuppression/map/while/MultiClassNonMaxSuppression/non_max_suppression_padded_32/NonMaxSuppressionV4/max_output_size", "shape": [], "dtype": "int32"}, {"name": "Postprocessor/BatchMultiClassNonMaxSuppression/map/while/MultiClassNonMaxSuppression/non_max_suppression_padded_32/iou_threshold", "shape": [], "dtype": "float32"}, {"name": "Postprocessor/BatchMultiClassNonMaxSuppression/map/while/MultiClassNonMaxSuppression/non_max_suppression_padded_32/score_threshold", "shape": [], "dtype": "float32"}, {"name": "Postprocessor/BatchMultiClassNonMaxSuppression/map/while/MultiClassNonMaxSuppression/Gather_32/GatherV2_1/axis", "shape": [], "dtype": "int32"}, {"name": "Postprocessor/BatchMultiClassNonMaxSuppression/map/while/MultiClassNonMaxSuppression/mul_32", "shape": [100], "dtype": "float32"}, {"name": "Postprocessor/BatchMultiClassNonMaxSuppression/map/while/MultiClassNonMaxSuppression/range_33", "shape": [100], "dtype": "int32"}, {"name": "Postprocessor/BatchMultiClassNonMaxSuppression/map/while/MultiClassNonMaxSuppression/Slice_33/begin", "shape": [2], "dtype": "int32"}, {"name": "Postprocessor/BatchMultiClassNonMaxSuppression/map/while/MultiClassNonMaxSuppression/stack_33/1", "shape": [], "dtype": "int32"}, {"name": "Postprocessor/BatchMultiClassNonMaxSuppression/map/while/MultiClassNonMaxSuppression/Reshape_33/shape", "shape": [1], "dtype": "int32"}, {"name": "Postprocessor/BatchMultiClassNonMaxSuppression/map/while/MultiClassNonMaxSuppression/non_max_suppression_padded_33/NonMaxSuppressionV4/max_output_size", "shape": [], "dtype": "int32"}, {"name": "Postprocessor/BatchMultiClassNonMaxSuppression/map/while/MultiClassNonMaxSuppression/non_max_suppression_padded_33/iou_threshold", "shape": [], "dtype": "float32"}, {"name": "Postprocessor/BatchMultiClassNonMaxSuppression/map/while/MultiClassNonMaxSuppression/non_max_suppression_padded_33/score_threshold", "shape": [], "dtype": "float32"}, {"name": "Postprocessor/BatchMultiClassNonMaxSuppression/map/while/MultiClassNonMaxSuppression/Gather_33/GatherV2_1/axis", "shape": [], "dtype": "int32"}, {"name": "Postprocessor/BatchMultiClassNonMaxSuppression/map/while/MultiClassNonMaxSuppression/mul_33", "shape": [100], "dtype": "float32"}, {"name": "Postprocessor/BatchMultiClassNonMaxSuppression/map/while/MultiClassNonMaxSuppression/range_34", "shape": [100], "dtype": "int32"}, {"name": "Postprocessor/BatchMultiClassNonMaxSuppression/map/while/MultiClassNonMaxSuppression/Slice_34/begin", "shape": [2], "dtype": "int32"}, {"name": "Postprocessor/BatchMultiClassNonMaxSuppression/map/while/MultiClassNonMaxSuppression/stack_34/1", "shape": [], "dtype": "int32"}, {"name": "Postprocessor/BatchMultiClassNonMaxSuppression/map/while/MultiClassNonMaxSuppression/Reshape_34/shape", "shape": [1], "dtype": "int32"}, {"name": "Postprocessor/BatchMultiClassNonMaxSuppression/map/while/MultiClassNonMaxSuppression/non_max_suppression_padded_34/NonMaxSuppressionV4/max_output_size", "shape": [], "dtype": "int32"}, {"name": "Postprocessor/BatchMultiClassNonMaxSuppression/map/while/MultiClassNonMaxSuppression/non_max_suppression_padded_34/iou_threshold", "shape": [], "dtype": "float32"}, {"name": "Postprocessor/BatchMultiClassNonMaxSuppression/map/while/MultiClassNonMaxSuppression/non_max_suppression_padded_34/score_threshold", "shape": [], "dtype": "float32"}, {"name": "Postprocessor/BatchMultiClassNonMaxSuppression/map/while/MultiClassNonMaxSuppression/Gather_34/GatherV2_1/axis", "shape": [], "dtype": "int32"}, {"name": "Postprocessor/BatchMultiClassNonMaxSuppression/map/while/MultiClassNonMaxSuppression/mul_34", "shape": [100], "dtype": "float32"}, {"name": "Postprocessor/BatchMultiClassNonMaxSuppression/map/while/MultiClassNonMaxSuppression/range_35", "shape": [100], "dtype": "int32"}, {"name": "Postprocessor/BatchMultiClassNonMaxSuppression/map/while/MultiClassNonMaxSuppression/Slice_35/begin", "shape": [2], "dtype": "int32"}, {"name": "Postprocessor/BatchMultiClassNonMaxSuppression/map/while/MultiClassNonMaxSuppression/stack_35/1", "shape": [], "dtype": "int32"}, {"name": "Postprocessor/BatchMultiClassNonMaxSuppression/map/while/MultiClassNonMaxSuppression/Reshape_35/shape", "shape": [1], "dtype": "int32"}, {"name": "Postprocessor/BatchMultiClassNonMaxSuppression/map/while/MultiClassNonMaxSuppression/non_max_suppression_padded_35/NonMaxSuppressionV4/max_output_size", "shape": [], "dtype": "int32"}, {"name": "Postprocessor/BatchMultiClassNonMaxSuppression/map/while/MultiClassNonMaxSuppression/non_max_suppression_padded_35/iou_threshold", "shape": [], "dtype": "float32"}, {"name": "Postprocessor/BatchMultiClassNonMaxSuppression/map/while/MultiClassNonMaxSuppression/non_max_suppression_padded_35/score_threshold", "shape": [], "dtype": "float32"}, {"name": "Postprocessor/BatchMultiClassNonMaxSuppression/map/while/MultiClassNonMaxSuppression/Gather_35/GatherV2_1/axis", "shape": [], "dtype": "int32"}, {"name": "Postprocessor/BatchMultiClassNonMaxSuppression/map/while/MultiClassNonMaxSuppression/mul_35", "shape": [100], "dtype": "float32"}, {"name": "Postprocessor/BatchMultiClassNonMaxSuppression/map/while/MultiClassNonMaxSuppression/range_36", "shape": [100], "dtype": "int32"}, {"name": "Postprocessor/BatchMultiClassNonMaxSuppression/map/while/MultiClassNonMaxSuppression/Slice_36/begin", "shape": [2], "dtype": "int32"}, {"name": "Postprocessor/BatchMultiClassNonMaxSuppression/map/while/MultiClassNonMaxSuppression/stack_36/1", "shape": [], "dtype": "int32"}, {"name": "Postprocessor/BatchMultiClassNonMaxSuppression/map/while/MultiClassNonMaxSuppression/Reshape_36/shape", "shape": [1], "dtype": "int32"}, {"name": "Postprocessor/BatchMultiClassNonMaxSuppression/map/while/MultiClassNonMaxSuppression/non_max_suppression_padded_36/NonMaxSuppressionV4/max_output_size", "shape": [], "dtype": "int32"}, {"name": "Postprocessor/BatchMultiClassNonMaxSuppression/map/while/MultiClassNonMaxSuppression/non_max_suppression_padded_36/iou_threshold", "shape": [], "dtype": "float32"}, {"name": "Postprocessor/BatchMultiClassNonMaxSuppression/map/while/MultiClassNonMaxSuppression/non_max_suppression_padded_36/score_threshold", "shape": [], "dtype": "float32"}, {"name": "Postprocessor/BatchMultiClassNonMaxSuppression/map/while/MultiClassNonMaxSuppression/Gather_36/GatherV2_1/axis", "shape": [], "dtype": "int32"}, {"name": "Postprocessor/BatchMultiClassNonMaxSuppression/map/while/MultiClassNonMaxSuppression/mul_36", "shape": [100], "dtype": "float32"}, {"name": "Postprocessor/BatchMultiClassNonMaxSuppression/map/while/MultiClassNonMaxSuppression/range_37", "shape": [100], "dtype": "int32"}, {"name": "Postprocessor/BatchMultiClassNonMaxSuppression/map/while/MultiClassNonMaxSuppression/Slice_37/begin", "shape": [2], "dtype": "int32"}, {"name": "Postprocessor/BatchMultiClassNonMaxSuppression/map/while/MultiClassNonMaxSuppression/stack_37/1", "shape": [], "dtype": "int32"}, {"name": "Postprocessor/BatchMultiClassNonMaxSuppression/map/while/MultiClassNonMaxSuppression/Reshape_37/shape", "shape": [1], "dtype": "int32"}, {"name": "Postprocessor/BatchMultiClassNonMaxSuppression/map/while/MultiClassNonMaxSuppression/non_max_suppression_padded_37/NonMaxSuppressionV4/max_output_size", "shape": [], "dtype": "int32"}, {"name": "Postprocessor/BatchMultiClassNonMaxSuppression/map/while/MultiClassNonMaxSuppression/non_max_suppression_padded_37/iou_threshold", "shape": [], "dtype": "float32"}, {"name": "Postprocessor/BatchMultiClassNonMaxSuppression/map/while/MultiClassNonMaxSuppression/non_max_suppression_padded_37/score_threshold", "shape": [], "dtype": "float32"}, {"name": "Postprocessor/BatchMultiClassNonMaxSuppression/map/while/MultiClassNonMaxSuppression/Gather_37/GatherV2_1/axis", "shape": [], "dtype": "int32"}, {"name": "Postprocessor/BatchMultiClassNonMaxSuppression/map/while/MultiClassNonMaxSuppression/mul_37", "shape": [100], "dtype": "float32"}, {"name": "Postprocessor/BatchMultiClassNonMaxSuppression/map/while/MultiClassNonMaxSuppression/range_38", "shape": [100], "dtype": "int32"}, {"name": "Postprocessor/BatchMultiClassNonMaxSuppression/map/while/MultiClassNonMaxSuppression/Slice_38/begin", "shape": [2], "dtype": "int32"}, {"name": "Postprocessor/BatchMultiClassNonMaxSuppression/map/while/range/start", "shape": [], "dtype": "int32"}, {"name": "Postprocessor/BatchMultiClassNonMaxSuppression/map/while/strided_slice/stack", "shape": [1], "dtype": "int32"}, {"name": "Postprocessor/BatchMultiClassNonMaxSuppression/map/while/strided_slice/stack_1", "shape": [1], "dtype": "int32"}, {"name": "Postprocessor/BatchMultiClassNonMaxSuppression/map/while/strided_slice/stack_2", "shape": [1], "dtype": "int32"}, {"name": "Postprocessor/BatchMultiClassNonMaxSuppression/map/while/range/delta", "shape": [], "dtype": "int32"}, {"name": "Postprocessor/BatchMultiClassNonMaxSuppression/map/while/Fill/value", "shape": [], "dtype": "float32"}, {"name": "Postprocessor/BatchMultiClassNonMaxSuppression/map/while/MultiClassNonMaxSuppression/strided_slice/stack", "shape": [1], "dtype": "int32"}, {"name": "Postprocessor/BatchMultiClassNonMaxSuppression/map/while/MultiClassNonMaxSuppression/strided_slice/stack_1", "shape": [1], "dtype": "int32"}, {"name": "Postprocessor/BatchMultiClassNonMaxSuppression/map/while/MultiClassNonMaxSuppression/strided_slice/stack_2", "shape": [1], "dtype": "int32"}, {"name": "Postprocessor/BatchMultiClassNonMaxSuppression/map/while/MultiClassNonMaxSuppression/stack_38/1", "shape": [], "dtype": "int32"}, {"name": "Postprocessor/BatchMultiClassNonMaxSuppression/map/while/MultiClassNonMaxSuppression/Reshape_38/shape", "shape": [1], "dtype": "int32"}, {"name": "Postprocessor/BatchMultiClassNonMaxSuppression/map/while/MultiClassNonMaxSuppression/non_max_suppression_padded_38/NonMaxSuppressionV4/max_output_size", "shape": [], "dtype": "int32"}, {"name": "Postprocessor/BatchMultiClassNonMaxSuppression/map/while/MultiClassNonMaxSuppression/non_max_suppression_padded_38/iou_threshold", "shape": [], "dtype": "float32"}, {"name": "Postprocessor/BatchMultiClassNonMaxSuppression/map/while/MultiClassNonMaxSuppression/non_max_suppression_padded_38/score_threshold", "shape": [], "dtype": "float32"}, {"name": "Postprocessor/BatchMultiClassNonMaxSuppression/map/while/MultiClassNonMaxSuppression/Gather_38/GatherV2_1/axis", "shape": [], "dtype": "int32"}, {"name": "Postprocessor/BatchMultiClassNonMaxSuppression/map/while/MultiClassNonMaxSuppression/mul_38", "shape": [100], "dtype": "float32"}, {"name": "Postprocessor/BatchMultiClassNonMaxSuppression/map/while/MultiClassNonMaxSuppression/Concatenate/concat_1/axis", "shape": [], "dtype": "int32"}, {"name": "Postprocessor/BatchMultiClassNonMaxSuppression/map/while/MultiClassNonMaxSuppression/SortByField/strided_slice", "shape": [], "dtype": "int32"}, {"name": "Postprocessor/BatchMultiClassNonMaxSuppression/map/while/MultiClassNonMaxSuppression/SortByField/Gather/GatherV2_1/axis", "shape": [], "dtype": "int32"}, {"name": "Postprocessor/BatchMultiClassNonMaxSuppression/map/while/MultiClassNonMaxSuppression/mul_39", "shape": [3900], "dtype": "float32"}, {"name": "Postprocessor/BatchMultiClassNonMaxSuppression/map/while/MultiClassNonMaxSuppression/GreaterEqual/y", "shape": [], "dtype": "float32"}, {"name": "Postprocessor/BatchMultiClassNonMaxSuppression/map/while/MultiClassNonMaxSuppression/Const_1", "shape": [1], "dtype": "int32"}, {"name": "Postprocessor/BatchMultiClassNonMaxSuppression/map/while/MultiClassNonMaxSuppression/Minimum", "shape": [], "dtype": "int32"}, {"name": "Postprocessor/BatchMultiClassNonMaxSuppression/map/while/add/y", "shape": [], "dtype": "int32"}, {"name": "Postprocessor/BatchMultiClassNonMaxSuppression/map/while/add_1/y", "shape": [], "dtype": "int32"}]}]}